autoencoder/model2_decoder.pt (torch, 131919 bytes, 8 tensors)

layer_middle.weight f4 [27, 27]
00000000: c2df 66bd c720 8f3d 7a80 213e 1c72 6bbe
00000010: 71e1 3bbd e2ec efbe 99a2 203e e592 4abe
00000020: deca 92bc 0dd3 26bd 62d1 cb3d 1d26 e4bd
00000030: 2256 f43c cdf1 9dbd 0035 c0bd a5aa 0dbe
00000040: 426a a1bc efd1 303e 86cd cf3d 2810 a3bb
00000050: 9acd a0bf c91a 91bd 215c 0ebe 31c2 b4bd
00000060: 8dfe 223e 1c43 79be 4328 3ebe 9884 103e
00000070: b86a e03d 2187 413e 2aab 48bd 85aa 34bd
00000080: e567 0ebd 13e0 f53c 730a 4bbe bdfa 1fbe
00000090: db51 63be 6b97 17bd 4416 063e 761b c23d
000000a0: 7a0f 1abe 2adf 923d f733 143e d9ed 8cbd
000000b0: 2916 b7bd 533e 7d3d b407 07be a47a a1be
000000c0: 8336 4abe 0dfc e4bd 1664 04be d622 a3bd
000000d0: 838a 7cbe c52b afbd c0a4 8a3d 7632 77bd
000000e0: 236f 9cbe 3a11 a13d b05d 343c f232 aa3d
000000f0: d82b 943d b71d 1ebc c2c7 88bb 6d3c c73e
00000100: 37e7 e73c f873 06bc df57 37bc 83aa b9bc
00000110: cb7a 143d 39e8 443d a351 3e3e 398c 453e
00000120: 01fb 733b fa6c 43bd 693c c6ba 41e6 523d
00000130: a747 3a3d d335 6cc1 0fa6 b03d 9b02 d0bc
00000140: e7da aa3c 708f 1b3e c1fa 0abe 0bae c7be
00000150: 65b4 18bd 4eec 05be 745f 3ebe a466 b0bd
00000160: 5104 0abd 63b9 bebd 93a2 31bc f69a 263e
00000170: 75e6 7c3e 1ad7 19be 6401 c0bd 3067 f23d
00000180: a967 d5bd bcc2 a1bd c715 1f3e ac42 213e
00000190: ed2e 253d b8d8 9ebe 2b2a 78bd 36da 91be
000001a0: 2ece 18bc 1f87 48bd f625 6fbd f885 42be
000001b0: 8675 223c c7a7 543d 2753 0e3e d17f ca3c
000001c0: 70ba 4cbe 5023 e3bc 5089 143e dd9f 85bd
000001d0: 6995 82be 0d12 9dbd 0cbd f3bd dae5 34be
000001e0: c80d d2bd 55b8 753d d7c7 4abe 5a46 cd3c
000001f0: 9835 5d3c d328 753d 9f2e 283e 71c2 d03d
00000200: dc5a dabd 0d27 fcbc 7b67 87be ca52 e4bd
00000210: 80ef 7fbd 87df b6bd 584c a1b9 62ab 293c
00000220: 569f b13d bff1 c6be 929e 883c ff62 d53d
00000230: 0f2e 2bbe 2f4a a03b 85fc babd 37f2 27be
00000240: b2c9 25bd 2316 1b3e 91a5 d83d b23a 52bd
00000250: 5e64 d7bd f0d1 babd 37bf 183d 476b 93bd
00000260: 49fd cb3d a802 b33d 0a2d 3fbe 9ade 52be
00000270: 19f5 72bd 3f1a 20be 4deb 80bc e748 a5bd
00000280: d391 2cbe 7583 a7be f67c bdbc 4f03 7a3d
00000290: 9e6e 823e 0b42 0fbe 27b7 523c e837 18bd
000002a0: 0f79 d7bb 906f 1bbf ea7c fbbd cadd 4cbd
000002b0: 8ce3 2e3d 7578 313d 83a1 5abe 5f4e 093d
000002c0: 4157 943d 5179 42be 1318 dc3c 60fc 9dbd
000002d0: 6a96 8aba 3ea9 88be bc82 ea3c 1e1c 653d
000002e0: a7ce 293e 5856 b0be 3373 413d 76c1 c9bf
000002f0: e893 563d af53 8d3c b3a3 8c3d 8bc7 10be
00000300: afbd de3d d0fd cbbc 8b0b cabd e134 1ebd
00000310: 6fa3 693e 99b0 b839 0b9b 35ba 4a90 af3d
00000320: 6203 26bc 69f8 cdbb cc4e 433c bcf1 203e
00000330: 064a 4ebd d4ce b13c a775 bebd 4580 2b3e
00000340: 60f5 adbc f0b0 17bd 2928 863d b654 a83d
00000350: 6bbc 8c39 febe d33c ca5a dc3e c09a a7bb
00000360: d138 3e3e dcb6 233e 698c 67bd 523d 0f3e
00000370: a824 1e3e 8275 7fbe 4de0 3a3e 780e cbbe
00000380: 8e84 67be 7e0e adbd eacf 3f3d 8eec 5e3d
00000390: 4fa0 09be 00da 8a3d 6cc1 89bc 4820 9bbd
000003a0: 441c 28bd fb15 a2bd 4d18 81bd 5f27 44bd
000003b0: a35a a0bd 1a7d babd 6b23 953c a3ed f8bb
000003c0: 4f17 a43d 232c 64be 82b1 523d 3f86 313e
000003d0: b8e6 e9bd eccd 8fbb 9112 43be fa69 c6bd
000003e0: b6ed 27be 990f 1cbe a394 4eba e031 9abb
000003f0: d4d8 00be 2236 2abe 7ad9 c9bc 9e8f f6bd
-0.056365736 0.06988674 0.15771666 -0.22992748 -0.045869295 -0.46860415 0.15687026 -0.19782598
-0.017919 -0.040728617 0.09952046 -0.11140082 0.029826228 -0.077121355 -0.09385109 -0.13834627
-0.019703988 0.17267583 0.10146622 -0.004976291 -1.2562745 -0.07085187 -0.13902332 -0.088261016
0.15917416 -0.24342006 -0.18570046 0.1411308 0.10957855 0.18899204 -0.04899136 -0.044107933
-0.03476705 0.030014073 -0.19828205 -0.15622993 -0.22199194 -0.037009638 0.13094431 0.09477894
-0.15044966 0.071714714 0.14472948 -0.06881303 -0.089397736 0.061827015 -0.13186532 -0.3153888
-0.19747357 -0.11180887 -0.12928805 -0.07965629 -0.24662213 -0.0855327 0.06769705 -0.060350858
-0.3055354 0.07864614 0.011008665 0.08310498 0.07234925 -0.009650639 -0.0041742036 0.3891329
0.028308494 -0.00820636 -0.011190384 -0.022664314 0.036249917 0.048073027 0.1858583 0.19291772
0.0037228467 -0.04771135 -0.0015124205 0.05148912 0.04547849 -14.763141 0.08625423 -0.025391867
0.020856334 0.15191436 -0.13572218 -0.38999972 -0.037281413 -0.13078424 -0.185911 -0.08613327
-0.033695523 -0.093127035 -0.010841983 0.1627005 0.24697287 -0.15023461 -0.09375265 0.11836088
-0.10420162 -0.07898471 0.15535651 0.1574809 0.040327955 -0.31024718 -0.06058709 -0.28486794
-0.009326501 -0.048956987 -0.05838581 -0.18996418 0.009915715 0.051917817 0.13898908 0.02471915
-0.19992995 -0.0277268 0.14505506 -0.06524632 -0.25504616 -0.076694585 -0.11901292 -0.17665806
-0.10256535 0.059990246 -0.19802795 0.02505796 0.013501547 0.059853386 0.16424035 0.10193337
-0.10661861 -0.03078034 -0.26446137 -0.11148603 -0.062484264 -0.08929353 -0.00030765194 0.010355802
0.08672969 -0.38856313 0.016677175 0.10419273 -0.16716789 0.004891656 -0.091301955 -0.16400991
-0.040475555 0.15145163 0.10578454 -0.051325507 -0.105171904 -0.09122074 0.03729173 -0.07198196
0.0996042 0.08740741 -0.18669525 -0.20592728 -0.059315775 -0.15635012 -0.0157372 -0.08070546
-0.16852503 -0.3271748 -0.023130875 0.06103831 0.2547502 -0.13990037 0.01286105 -0.03716269
-0.0065757106 -0.60717106 -0.12279685 -0.050016202 0.042697474 0.043327767 -0.21350674 0.033522006
0.07243205 -0.18991591 0.026866948 -0.07714152 -0.0010573391 -0.26691622 0.028626792 0.055935018
0.16582738 -0.34440875 0.047229003 -1.5762165 0.05238715 0.017251818 0.06867161 -0.1413862
0.10876023 -0.0249013 -0.09865483 -0.038624648 0.22816251 0.0003522679 -0.0006927705 0.08572443
-0.010132642 -0.0062857163 0.011920642 0.15717214 -0.050363563 0.021705069 -0.09299784 0.1674815
-0.021235168 -0.037033975 0.06550629 0.08219282 0.00026843263 0.025847908 0.43038017 -0.005114883
0.18576361 0.15987724 -0.05653039 0.13988236 0.15443671 -0.2494717 0.18249626 -0.39659476
-0.2260916 -0.0845003 0.04682914 0.054424815 -0.13440059 0.067798615 -0.016815864 -0.075745165
-0.04104258 -0.07914349 -0.06303463 -0.04788911 -0.078297876 -0.091058925 0.018205365 -0.007596688
0.08012258 -0.22282462 0.051438816 0.17336367 -0.11420959 -0.0043885615 -0.19050051 -0.09688182
-0.16399273 -0.15240325 -0.0007880425 -0.0047056526 -0.12582713 -0.16622213 -0.024639834 -0.120391116

layer_middle.bias f4 [27]
00000000: 02eb ecbe 6122 6339 f67e 1cbe 0041 143b
00000010: da00 64be f97d 87bd 2d68 56c0 b87f 193b
00000020: 3c55 e0bd 6de4 34be 4647 3dbc 3c52 b6be
00000030: e12c 9c3f aa26 9abf ca00 8dbb 0d63 29be
00000040: 5055 95bd 327a eb3d 00dc c8bc aef4 99be
00000050: 9af0 f9bd 40ba 51be d9bc 1dbf 6543 89bd
00000060: c152 4d3b 499c ee3d aec7 553d
-0.46273047 0.00021661214 -0.15282807 0.002262175 -0.2226595 -0.06615824 -3.3501084 0.0023422074
-0.10953757 -0.17665263 -0.011552637 -0.35609615 1.2201196 -1.2043049 -0.0043030726 -0.16541691
-0.07291663 0.11497916 -0.024518967 -0.30069488 -0.12204094 -0.20481205 -0.61616284 -0.067023076
0.0031329843 0.11650903 0.052192383

layer_4.weight f4 [54, 27]
00000000: ee37 de3d 0837 a13d a9a5 c3bc e4f5 d8bd
00000010: b2c0 08be 8b1b 6dbd f469 a2be e2d6 3bbe
00000020: cef4 cbbd 7ec6 9ebd a08e 853d 6a68 66bb
00000030: f10b 79be 03bf f9bc 1a95 49be 1ea2 01be
00000040: b073 50bc 5b94 9aba e7d4 5ebb 82b8 f8bd
00000050: 77f0 a4bc d7de 1dbe f98a d8bd c72d 2fbe
00000060: acb3 58be 4d46 cabd 0bcc cebd f120 30be
00000070: ffae 9f3d 5201 f3be e805 88bd 9fe3 dfbd
00000080: 6b2c 4d3e c5ef 44c0 8188 d0be 1d84 9dbb
00000090: 0fb6 d4bd 92dc a9bd e1c1 1cbe 6557 e6be
000000a0: 44e2 6f3c a26b 063d 7dc0 863d 1222 a7bb
000000b0: 1be0 c2be 863e 0c3e 8189 3f3d bc8b 27be
000000c0: 7e4b 303e eca7 2abd fbfa 0d3e 1227 cdbe
000000d0: d4c5 6dbe 89a7 f7bd 2f70 843d 9c05 75bd
000000e0: e628 22bf 7cd9 333d 9cc8 293e c757 3cbe
000000f0: 3494 4fbf 4ca5 4bbf 5030 eb3c d22d e53d
00000100: d850 9a3d c426 193e 219f f1be d5b8 1d3c
00000110: b000 83bc 845e 26bc 9d52 33bd cec4 e7be
00000120: 8754 79bd 5b69 49bd 1778 11bb 5e28 7d3d
00000130: 02b9 663e 61e1 b13c edf0 13bf 3686 3cbf
00000140: 1261 9f3d 97fb f6bd 5410 603c d901 a3be
00000150: d28e 9bbd dae9 243d c1d5 5dbe 4a0e 31bf
00000160: 0a45 79be 31c8 6b3d 22c7 40bd ca8d 01bd
00000170: b046 b4bd 64a0 1dbe 1736 f9bc 2137 ae3c
00000180: 52b3 eabd 33c5 fcbe ab6e 3bbe c3e2 89bd
00000190: 77a0 003b a8b1 59be 3292 e9bc 3a63 7b3e
000001a0: fafa 243d b61d 4abf 4802 d2bd c0fe f03d
000001b0: 8e9a cb3c 4b0e 09be a564 91ba 023c b03c
000001c0: 1142 97bb bc72 f1bd 6d6e 35be 3297 2b3d
000001d0: 74fd 00be bb0d b93d 72db 56bb 0437 a7bc
000001e0: 0fe5 9b3d 1b0e d73c 43fd e63d 69df 843d
000001f0: 0840 f3bd 5af0 b4be 6ee4 fabc 876f 843c
00000200: 3a61 6f3b 1f22 1fbd f24b 3f3d 4769 923c
00000210: ceac 823e 86ec 07bb bd97 bfbc 4b87 963c
00000220: 164f 7cbd 895d 8bba be97 8bbd 38ac 17be
00000230: ca51 bb3d 6fb1 41be fdc5 b2be 2557 07bd
00000240: 1d33 d7bd 7fb9 a63d 8b69 013d b8a8 76be
00000250: fa6d 193e 9d43 ba3d 149e 19be 92fd 18bd
00000260: 8a29 bebb 509b 2cbe a79c 93bc 1d02 b33b
00000270: 8ffe 133e abdb 543c 6fef d73d 16cf 53bb
00000280: 4ce5 21be b0a0 70be a7a8 97be 4916 cbbd
00000290: 7302 b1bb 46b2 e93c 0bec 7e3d f6c8 313d
000002a0: 3a05 9cbd 7fe3 06bf 701a f13d d850 633d
000002b0: e777 0c3e e206 d7bc dad1 fbbe b4f3 c43d
000002c0: 02d1 0cbe 4f49 c7bd 9fba 75bd b539 91bc
000002d0: 78da e3bb b7bf f73c 9bf7 22be 9ab0 06be
000002e0: 23f1 cc3d 7abd e93c e0e2 28be 17a5 16bc
000002f0: 7c8f cfbd e6d9 8bbc eceb bebd 3fb7 b7be
00000300: 3fd2 093c d015 d7bd 4a84 c03c 880d 4ebe
00000310: 0822 f8be a923 d9bd 2c7d c93d 46db 16bd
00000320: 504b f4bd 3367 8bbe 631a 223c 6087 16bb
00000330: 27fa fdbb 5d24 1a3d 70cc 65be 57bb 42be
00000340: e6df 143e 61fe 603e 8102 3d3e 9d57 fcbd
00000350: eb05 38be f965 42be 546d 88be cdfd 883c
00000360: 3097 39be deb9 2dbd aa03 83be 62f9 d3bc
00000370: 1262 5fbd 01e9 b73d 8763 b8bd da38 f7bc
00000380: 1349 993d 4de7 21bc 3447 ddbd fe70 d1bd
00000390: a4bc eabd 4ce3 c0bd 7eed a4be 7773 5fbe
000003a0: 8509 fd3d f7b4 64be 1231 093e 27df 463d
000003b0: 9c6c db3d a121 e0bd 401f 2d3e a086 13be
000003c0: ec9a abbf bd6f 11bf 42ab 983d c35e 02be
000003d0: 4263 01bc 5b62 b7bd a424 4abe 8534 77bd
000003e0: cdc6 c33d 4094 85bd e3d8 91be e5ce 403e
000003f0: 51b2 3e3e f091 91bc f13f b8bd 35ce a3bd
0.108505115 0.078718245 -0.023882704 -0.10593775 -0.13354757 -0.057887595 -0.3172146 -0.1834369
-0.09958802 -0.07752703 0.06521344 -0.003515745 -0.24320962 -0.03048659 -0.19685784 -0.12659499
-0.012722895 -0.0011793481 -0.0034001411 -0.12144567 -0.020134194 -0.15417038 -0.10573382 -0.17107306
-0.2116229 -0.0987669 -0.10097512 -0.17200066 0.0779705 -0.47461945 -0.066417515 -0.10932087
0.20036475 -3.0771344 -0.40729144 -0.004807009 -0.103862874 -0.082940236 -0.15308334 -0.44988552
0.014641348 0.03281749 0.06579683 -0.005100497 -0.38061604 0.13695726 0.046761993 -0.16361898
0.17216298 -0.04166405 0.13865273 -0.4006887 -0.23219997 -0.12092502 0.0646671 -0.059819803
-0.63343656 0.04390858 0.16580433 -0.1839286 -0.81085515 -0.795491 0.02870956 0.1119038
0.07534951 0.14956194 -0.47191718 0.009626587 -0.015991539 -0.01015437 -0.043779958 -0.45267338
-0.060871627 -0.04917274 -0.0022196823 0.061806075 0.22531512 0.021713914 -0.577895 -0.7364229
0.077821866 -0.12059706 0.013675768 -0.31837347 -0.075956 0.04026208 -0.21663572 -0.6916243
-0.24342743 0.057563964 -0.047064908 -0.03162936 -0.08802545 -0.15393215 -0.0304213 0.021266522
-0.11459984 -0.493692 -0.18303935 -0.067327045 0.0019626895 -0.21259177 -0.028512094 0.2454957
0.040278412 -0.78951585 -0.10254341 0.1176734 0.02485397 -0.13384359 -0.0011092616 0.021512989
-0.00461603 -0.11789462 -0.17717905 0.041892238 -0.12596685 0.09035822 -0.0032784608 -0.020411976
0.07612049 0.026251843 0.112787746 0.064879246 -0.11877447 -0.35339624 -0.030626502 0.016166462
0.0036526457 -0.0388509 0.046703286 0.017872466 0.25522465 -0.0020740344 -0.023387784 0.01837506
-0.06159886 -0.0010632734 -0.06816052 -0.1481179 0.091464594 -0.18915342 -0.34916678 -0.033042092
-0.10507796 0.08140849 0.031594794 -0.24087799 0.14983359 0.090949275 -0.15001708 -0.0373512
-0.0058032917 -0.16856122 -0.018019034 0.0054628984 0.14452575 0.012991826 0.10543715 -0.0032319478
-0.15810126 -0.23498797 -0.2962086 -0.0991636 -0.0054019033 0.02852739 0.062236827 0.043404542
-0.076181844 -0.5269088 0.11772621 0.05549702 0.13717614 -0.0262484 -0.49183542 0.09616795
-0.13751605 -0.097307794 -0.05999243 -0.017727712 -0.0069535337 0.030242784 -0.15914766 -0.13153306
0.10006931 0.028532732 -0.16492796 -0.009194634 -0.10134789 -0.017071676 -0.09322342 -0.35881993
0.008411943 -0.10502207 0.02350058 -0.2012235 -0.48463464 -0.10602505 0.09838328 -0.03683021
-0.11928427 -0.27227172 0.009893986 -0.0022968873 -0.0077507677 0.037632335 -0.22441268 -0.19016777
0.14538535 0.21972038 0.18457986 -0.123213984 -0.17971008 -0.18984212 -0.2664591 0.016722584
-0.1812408 -0.042413585 -0.25588733 -0.02587575 -0.054536887 0.08979989 -0.09003358 -0.030178476
0.07484641 -0.009881807 -0.108045965 -0.1022663 -0.114617616 -0.094183534 -0.32212442 -0.2182139
0.12355331 -0.22334658 0.13397625 0.04855266 0.10714075 -0.10943914 0.16906452 -0.14406824
-1.3406653 -0.56811124 0.0745454 -0.12731461 -0.0078972 -0.08954307 -0.1974054 -0.06035282
0.095594026 -0.06522417 -0.28485784 0.18828924 0.1862271 -0.017769784 -0.08996571 -0.07998315

layer_4.bias f4 [54]
00000000: d7a4 a8be 8f6e 52ba c033 a73d 6180 dcbc
00000010: 8def 6b3f 6b84 19be 71d9 36bf df85 85bc
00000020: 3578 c2b9 a9a5 85be 36ac 89be 270a 10bc
00000030: 89a0 8bbe d574 c6bd 78e5 46be d0dc 91bc
00000040: dccf c9bf d766 82be adc6 94be a7ee fabd
00000050: 4a28 10c0 d1b4 0640 2ace 94bc d274 b2be
00000060: a56f 2cbd b6d1 ef3c 7e8e 8abc 7950 cebe
00000070: 59e6 82be 1f69 673e 5583 383e b6c0 3ebd
00000080: 8a6c 08bc b4f7 8e3f f331 8fbf a2c3 ccbc
00000090: 10e0 8e3a c0d2 c7bf a727 37be 76cb 4abe
000000a0: 842f 6abc 8f1d a5bf 04f5 41bb 25fd c0be
000000b0: 927c 36bd 79db 4abe 5288 06be 910d c0bd
000000c0: 23d9 023c 64eb 5abe cf96 583e a9e6 e3bc
000000d0: e058 c4bd 8a34 8f3b
-0.32938263 -0.0008027339 0.081641674 -0.026916685 0.921624 -0.1499192 -0.7142554 -0.016299186
-0.00037092125 -0.2610295 -0.268892 -0.008791483 -0.27270916 -0.09690253 -0.19423473 -0.017805487
-1.5766559 -0.25469086 -0.29057828 -0.122525506 -2.252459 2.1047862 -0.018164713 -0.34854752
-0.04209866 0.029274803 -0.016913649 -0.4029577 -0.25566366 0.22598694 0.18018849 -0.046570502
-0.008326659 1.1169343 -1.1187118 -0.024995629 0.0010900516 -1.5611191 -0.1788622 -0.19804177
-0.014293555 -1.2899646 -0.0029595504 -0.37693134 -0.044552393 -0.19810285 -0.1313794 -0.093775876
0.00798634 -0.21378857 0.21151279 -0.027819948 -0.09587264 0.004370277

layer_5.weight f4 [109, 54]
00000000: 6a23 a83d 5a48 e6be e938 1ebe 9c10 c0bd
00000010: 975d c13b c9b7 9fbd 4a5e ccbd de99 933d
00000020: 5666 95bd 7bc1 80bd 8250 183a 8bd3 48be
00000030: 4b8f 02bd a62c bdbd 5c9a f23d 0c07 103d
00000040: a2a3 8abe 4454 9cbd 44e6 8c3e a397 1b3e
00000050: cf31 44bd f661 93be f276 b8bd 017c 65bc
00000060: bedd e6bd c67f 833d bbe7 61bc f7e1 6cbe
00000070: 305d 2b3d dae1 703c d8e1 973c 7189 243e
00000080: 70f2 873d 2d78 6e3d 61c2 13be 2d85 c4bd
00000090: 430b 9bbe 0f9e 9a3e 0056 bc3c c5c7 b0bc
000000a0: fa45 8cbe f156 983c d0b8 c0be 78c1 6cbe
000000b0: 4439 1d3e 6930 193d c3c4 aebd 018b 02be
000000c0: 3f88 edbd 9363 9ebe 43a1 99bc cc6a bdbd
000000d0: 5197 45bd ead3 6ebd 7d07 68bd b326 19be
000000e0: 58c8 9a3e a97f 04be 8698 29bd d13f 283b
000000f0: b4e9 82be 74b7 04bd 14b4 08bd e822 ca3c
00000100: 525a 633e a06a aabd d6bf dbbc b33b 5ebe
00000110: a6f4 cb3d 3b89 f2bd e765 6abd ab95 c33d
00000120: 34ba acbf a8ad 6a3e 7cac 26bd e49c 47be
00000130: dd73 a4be efb3 89bd 50c1 4bbd 1b69 9d3d
00000140: bc48 65be ea45 27be 6a39 efbd e6d0 8e3e
00000150: a853 e7bc 9304 7fbd de81 c53e 4a4b 9abe
00000160: 5e64 993e 3dc7 1cbe e931 2bbe 59af b7be
00000170: a8b2 9cbc 6945 8cba de95 583e c78c 2b3d
00000180: 922f e9bd edfd eabd 9010 c43d 9d3b 733d
00000190: 3867 953d 0248 12be f5ff 453e bc6e 7f3e
000001a0: 96fa 1e3b 12ed 04bd 4e0c 083d 57f9 02be
000001b0: 1d3f b0bd 8aed 17be 3d0f 2ebc 9ee8 52be
000001c0: 2552 12bc 5641 62bd 0d03 833d 5c21 13bc
000001d0: f33e f23d 1a51 a5bd 056e 583e 1602 d5be
000001e0: 8b74 a53d a97e 7cbd 174a 5a3e b46c 183e
000001f0: 5749 abbd 3752 bd3c ed13 703e ba6b 0fbe
00000200: da90 35be ab28 90be 48f2 81bd b5d7 163e
00000210: abab aebc 7175 c3be d6b5 d8bd fb30 b3bb
00000220: 97a8 36bd 5148 f1bd 4130 9d3d ade5 1d3e
00000230: 1a7e b9bd f7ad 08bc 2493 3fbd cf66 18be
00000240: e01a 1fbd 6fe1 173e 943e 89bb 6d5f 493d
00000250: be64 25be 30b2 533c e164 ba3d 3ae9 d2be
00000260: 5090 25bd d2e4 15be 3371 fc3b b5ca d9bd
00000270: df0e 6fbe 7417 cdbe 238c be3b 64a9 323f
00000280: bf33 bbbd d6c6 6bbe 7b23 afbd f3d8 063e
00000290: 8fe5 ecbd 8502 cf3d 6aad abbd 9bff de3d
000002a0: c032 58bc a842 cf3d 9ad7 203c 1b17 23bd
000002b0: 72f6 d0bd a184 4e3d 11e9 e73d 0d8d 243e
000002c0: 089f d83c 7366 3bbf a527 45be 2625 9d3d
000002d0: 1a11 cdbe f5de b1bc 7a0b cfbe c9df 07be
000002e0: e227 283e 2044 c9bd 371a 09be dbb1 273e
000002f0: 0cf6 293d b29d c73d 7dba a1bd e5b7 873c
00000300: 43f7 98be b377 d33d 25e7 a1bb a8bc 42bd
00000310: d3fa 3abf bb4a 3ebe 1704 2a3d 406e 073f
00000320: e4de bebc 3366 0c3d 74b7 8d3d 4ae9 a73d
00000330: 57a9 e33d 1615 5dbd bb90 b4bd f73f 06be
00000340: 1b59 c33b d9da 853d e422 243e d525 24bf
00000350: 5038 2fbd b9d8 f5bc aaa2 6bbc 03c4 cf3b
00000360: 83a4 4f3e daa3 843e 92db 8cbd 8c59 f83c
00000370: f33d 183f adb2 743c 43a8 0dbf 572d 1b3d
00000380: a290 673d c84d d1bd adde ae3d 8968 e13d
00000390: e17b c73c bd94 e33c 1185 7f3c 11dc 4d3f
000003a0: 4ab4 973e edd1 a1bd 1b53 90be 5b34 99bd
000003b0: c216 023e a96b f8be 7bf9 8ebd 3963 093e
000003c0: 24e4 0f3d 4f38 3d3e 7c8a 8abe eac3 ab3e
000003d0: 56f9 23be 573b 433e ab21 8e3d 7efd c93e
000003e0: 5ef9 21be d56a ab3e 2dd7 bf3f 9215 8bbe
000003f0: 8e83 13bd 0522 bc3d 1b7e 523d f88d bbbd
0.0820988 -0.44977075 -0.15451397 -0.09378168 0.0059010494 -0.07798726 -0.09978922 0.07207082
-0.0729491 -0.062869035 0.00058103364 -0.19611947 -0.031874936 -0.09237032 0.11845848 0.03516297
-0.27077967 -0.0763326 0.2751943 0.15194564 -0.047899064 -0.28785676 -0.09007062 -0.014006616
-0.11272763 0.06420855 -0.013788159 -0.23133074 0.041836917 0.014702285 0.018540308 0.16068055
0.06638038 0.058220077 -0.14429618 -0.09595714 -0.3028203 0.30198714 0.022990227 -0.021579633
-0.27397138 0.018596144 -0.37641 -0.23120677 0.15353876 0.037399683 -0.08533623 -0.12748338
-0.115982525 -0.30935344 -0.018753653 -0.092488855 -0.04824001 -0.058307566 -0.056647766 -0.14956169
0.30230975 -0.12939323 -0.041405223 0.0025672803 -0.25568926 -0.032401517 -0.03337486 0.024674848
0.22202423 -0.08321118 -0.026824873 -0.21702461 0.09958772 -0.11842581 -0.057226088 0.09550031
-1.3494325 0.22917807 -0.040691838 -0.19493443 -0.32119647 -0.06723773 -0.049744904 0.07686063
-0.22391027 -0.16335264 -0.11680873 0.27893752 -0.028238133 -0.06226022 0.38575643 -0.30135566
0.29959387 -0.15310378 -0.16718258 -0.35875967 -0.019128159 -0.0010701838 0.2115092 0.041882303
-0.113860264 -0.11474214 0.095734715 0.059383024 0.07295078 -0.14285281 0.19335921 0.24944586
0.0024258248 -0.03245265 0.03321486 -0.12790428 -0.08605788 -0.14836708 -0.01062375 -0.20596549
-0.008930718 -0.05523809 0.06397066 -0.008980121 0.11828413 -0.080721095 0.21135719 -0.41603154
0.080788694 -0.06164423 0.21317326 0.14885217 -0.08363598 0.023110492 0.23445101 -0.14005938
-0.17731038 -0.28156027 -0.063450396 0.14730723 -0.021322092 -0.38175538 -0.105815575 -0.0054684854
-0.044594374 -0.117813714 0.07675219 0.15419646 -0.09057255 -0.008342258 -0.046771184 -0.14882968
-0.03884399 0.1483209 -0.004188368 0.04916327 -0.16151711 0.012920901 0.091012724 -0.41193563
-0.04042083 -0.1463807 0.007703924 -0.106343664 -0.23345517 -0.40056956 0.0058150454 0.6978972
-0.09140729 -0.23025069 -0.08551689 0.13168697 -0.11567222 0.101079024 -0.083826855 0.108885966
-0.0131956935 0.101201355 0.009817028 -0.039816957 -0.10203256 0.050419454 0.11323751 0.16069432
0.02644302 -0.732032 -0.19253404 0.07673101 -0.4005211 -0.02171276 -0.40438443 -0.13268961
0.16421464 -0.09827447 -0.13388906 0.1637644 0.041494414 0.09746875 -0.07896898 0.01656718
-0.29876146 0.10325565 -0.0049408847 -0.047543198 -0.7303898 -0.18583195 0.041507807 0.52902603
-0.023299642 0.034277152 0.069197565 0.08198793 0.111162834 -0.053975187 -0.08816668 -0.13110338
0.00596155 0.065358825 0.16028935 -0.6412023 -0.042778313 -0.030010568 -0.014382044 0.006340505
0.202776 0.2590626 -0.06877817 0.030316137 0.59469527 0.014935178 -0.5533487 0.037885036
0.056534417 -0.10219914 0.08538566 0.110062666 0.024351062 0.027780885 0.01559569 0.8041392
0.29629737 -0.07901368 -0.28188404 -0.07480689 0.12703994 -0.48519638 -0.069811784 0.13416757
0.03512968 0.18478511 -0.2705878 0.33547908 -0.16013083 0.19065605 0.069400154 0.39451212
-0.15817782 0.33479944 1.4987541 -0.27164894 -0.036014132 0.09186176 0.051389795 -0.09157938

layer_5.bias f4 [109]
00000000: 8997 8b3f 3875 ee3e 3955 1040 472c 4341
00000010: 97bd 1d41 7c7a e53d d8d6 1bbf 4666 29be
00000020: 59e1 01bf ecb5 773f 6bf3 84be 8f74 8abe
00000030: 4c1d 4bbe 74d4 2f3e f8de 753d 3bb2 ca3f
00000040: c8f5 233f b3e5 603f 4465 a83d 79cb dfbf
00000050: 5327 eabd 3e58 aabd 6765 013f 214c 6bbe
00000060: d18e b0bf df9d 9e3c f811 963b 42c5 9d3d
00000070: 1cad 54bf 3722 c43f 96cc fa3d 72a3 c4c0
00000080: 0db4 3cbf 8a9b 8fc0 aa08 2b40 18d0 70bf
00000090: cc9a b5be bcba 14bc 51d1 683e b194 88be
000000a0: 2122 0bbe 83bd 19be 6b1c 1a41 55d8 593e
000000b0: 4c0e 68bd 57f1 8dbd 7fbb 28be cb4c b43f
000000c0: c810 b9bd 1492 963e d2d5 d4bd ca78 4940
000000d0: 9d44 87be 3b93 17be 3777 b2be 8683 a3bd
000000e0: 96aa db3f 4564 15be b723 693f f211 0dbd
000000f0: 2d40 0a3e c2c7 b03d aa4a 0cbe 7938 5c3f
00000100: 2e64 733e e5ff 153f 7736 3fbf d249 713d
00000110: 40d9 1940 3661 17be 39e4 0ebd 1530 8ebe
00000120: 7dc9 aebf 26fa 3a41 520b 3e3e 7cd3 35bf
00000130: bfff 463e b818 d640 346f 8f3d b356 a83f
00000140: f1e5 f4bd 5d9e 23bf a098 a840 2071 8fc0
00000150: 82b4 89be 8e10 3741 a4c5 0abf 61db dfbd
00000160: 8053 8bc0 cfe5 19be f12d 89bd b63a ad40
00000170: 7779 aebd 9136 c4c0 67c2 883f cfb3 e63d
00000180: 461e 0dbe eb7b 0bbf 7649 3d41 7d8f 89c0
00000190: a700 d7bf 5374 593e 07ea 353c 9aed 12be
000001a0: 4928 8ebe d548 48bf e237 8ebd 7b83 473f
000001b0: f2ea 50c0
1.090562 0.46573806 2.2552016 12.19831 9.858787 0.11205003 -0.608747 -0.1654292
-0.5073448 0.96761966 -0.25966963 -0.27042052 -0.19835395 0.17170888 0.060027093 1.5835642
0.6404691 0.87850493 0.0822244 -1.748397 -0.11433282 -0.08317612 0.5054535 -0.2297826
-1.3793584 0.019362388 0.0045797788 0.077036396 -0.83076644 1.5322942 0.12246053 -6.144952
-0.73712236 -4.4877367 2.6724038 -0.94067526 -0.35469663 -0.009077724 0.22736098 -0.26675943
-0.13587238 -0.15013699 9.631938 0.2127393 -0.05665426 -0.069307975 -0.16477774 1.4085935
-0.09036404 0.29408324 -0.103923455 3.1479974 -0.26419535 -0.14802258 -0.3485658 -0.079840705
1.7161434 -0.14589031 0.9107012 -0.034440942 0.13501044 0.08631851 -0.13700357 0.8602367
0.23768684 0.5859359 -0.7469248 0.05890829 2.403885 -0.14783177 -0.03488562 -0.2777106
-1.3655239 11.686071 0.18559006 -0.71025825 0.19433497 6.6905174 0.07003632 1.3151459
-0.1195792 -0.6391352 5.268631 -4.482559 -0.2689553 11.441542 -0.54207826 -0.10930515
-4.353943 -0.15029071 -0.06698216 5.413417 -0.08519261 -6.131661 1.0684327 0.112647645
-0.1378108 -0.5448596 11.830435 -4.2987657 -1.6797074 0.2123578 0.01110316 -0.1434845
-0.2776511 -0.7823613 -0.069442526 0.77935 -3.26434

layer_6.weight f4 [219, 109]
00000000: 1471 1b3d 1c1c 8f3d 9339 9c3d c20f 143f
00000010: 525c 413f 3506 07bc 3ce5 b33c 7799 843c
00000020: e706 40bd 7950 493d cfeb 753d 6557 cabc
00000030: e12a c63d eb55 54bd f58f d3bc b218 93bc
00000040: df51 663d 0d32 b2bc 693c 6bbd b136 03bf
00000050: 59a4 2d3c 403b cbba a17c 24bd d2bb 203d
00000060: 40b6 1ebd 9708 9a3d 37e1 0c3c 7847 933b
00000070: 5ee1 d7bd 1e4a 3f3f 0070 03b6 a293 09bd
00000080: c542 e03c 84ff c4bc 6930 2e3a 0a5b bfbe
00000090: 8cba 76ba fbed 2f3c df84 0cbc 152f 66bd
000000a0: 6f99 4b3d 1a4d a93d b197 ef3e ab05 e83d
000000b0: 7e37 75bd 9a1a a0bc 6661 ac3c b1ed a5bd
000000c0: 1d0f d53c 0223 20bf 66ab 27bc 7a6c 143d
000000d0: 2040 08bd e014 1e3d 4f72 673d dac1 2ebc
000000e0: 575d 1e3d 177a d1bc d3fc 1cbd 6e1a 493a
000000f0: fa7a e43c 3a0e bc39 6c8d 9abd 4420 d63e
00000100: c43a 093f 7ea1 0f39 1784 e1bb a2ab 61bd
00000110: 3fb0 a0ba 551f d73c 617e 7ebd 4a84 373d
00000120: 647e f53c 8963 293f 9e28 9cbd 93af 14bd
00000130: 9102 d8ba 6ad2 86bd 51e8 f0bc 9213 953d
00000140: ffc5 643d 12b0 fc3c 06cd 1e3d a355 cc3d
00000150: ce3b 7fbd 4f82 d83e d263 d83b 0b95 a1bd
00000160: 94cb 0f3d ca21 083b 43e8 13be 5d9e aa3e
00000170: 3594 2e3d 05a4 96be a5dc c23d 77d9 0cbb
00000180: c14a 6abb e003 343d c04c a83e eb3f 33be
00000190: 61ae 73be 0e8a 59bd 2485 193d 4e5a 85be
000001a0: 23a6 93ba d46c 33bd a452 5e3c faaa a6bd
000001b0: 0aa0 533e 453b 0f3d d626 7e3d c071 893d
000001c0: 4e80 023f 1d4a 2b3f ed05 01ba 8732 9b3c
000001d0: c139 1ebc f854 34bd 6f5c 3b3d 7c12 12bd
000001e0: 5654 0cbd 9eb1 673d be12 3abd 739a b6bc
000001f0: 0bd8 85bc a769 543d 0d96 a8bc 86a1 58bd
00000200: 8b9c efbe 8cc8 c53d c5f6 d5bc 3eaa 0ebd
00000210: 3b83 4d3d 318c 10bd 6fdb 7bbd 8f60 b5bc
00000220: c04a c93c f892 c0bd 6787 2a3f a6a1 f13a
00000230: d99d 00bd 16f8 c33c c085 713c 77e9 8cb9
00000240: cfcb abbe 6c2e fd3b 4299 863d b4f3 33bc
00000250: b3cd a4bb cbb8 573d 12d9 62bd 1131 cf3e
00000260: 0b95 d03d af67 63bd 1daf a73d d68e a93d
00000270: ea75 94bd 00e2 cb3c cea0 06bf eccd 10bc
00000280: 0770 063d 08e5 0abc 7e56 023d 7e82 523d
00000290: 8126 2d3d 157f 093d d705 d73c 5294 d8bc
000002a0: 88a1 623a 367a be3c 9194 80ba 4ae0 74bd
000002b0: f02f c03e 929a fd3e b8c8 213a bbe0 56bc
000002c0: 5147 e8bc 393a 90bc 090d 2a3d 17d9 27bd
000002d0: 6136 763d f0ad e23c ab8c 113f e9bc 88bd
000002e0: 3160 03bd c4d1 cabb 26de 6bbd f382 cfbc
000002f0: 0cf9 833d f6ea 0a3d 4806 c63c ee75 0f3d
00000300: e1de b53d 4bd7 57bd 5058 ca3e 8a71 343c
00000310: df97 97ba be59 ff3c ba09 3e3b 127e 823d
00000320: 8b9a 993e eb5f 373d 22b5 87be a371 b23d
00000330: 82f1 b43d 5d64 64bd c20e 203d 5f16 8c3e
00000340: 260e 17be 0177 4abe 35ef 3fbd d712 3b3d
00000350: 3e77 69be de48 a03c 32a5 20bd 966d db3d
00000360: 3ab3 1abd 6ed8 3f3e 14ad 763d 759f f23d
00000370: 98bc 063e 0e19 883f 54c6 ab3f dff1 8ebd
00000380: c164 113d 45d9 e33b 152a 92bd 1d71 9f3d
00000390: 4cf1 953d 8f23 8f3c 9247 383d 2ccb bfbd
000003a0: f5d2 dcbb bc5f fdbc c804 b23d 1a0f 1fbd
000003b0: 2df7 9cbd 6b50 4dbf 543f aa3c 1e0c 8c3d
000003c0: ff00 8fbd 9fbb 1f3d 0eda 75bd 7ca7 5bbd
000003d0: 5eb0 a23d 5a3d cd3d fac5 37be 118d a23f
000003e0: fcf7 fa3b 1228 56bd effb 2a3d 2fa6 d8bc
000003f0: 4c15 21bc 5a75 1ebf c34f e03c b913 0c3d
0.037949637 0.06987783 0.07628169 0.57836545 0.75531495 -0.008241226 0.021959893 0.016186459
-0.046881583 0.04914901 0.060039338 -0.024699876 0.09676147 -0.05183975 -0.02582548 -0.017956112
0.056230422 -0.021752382 -0.05743066 -0.5125533 0.010598266 -0.0015505329 -0.040157918 0.03924162
-0.038748026 0.0752117 0.008598617 0.0044946037 -0.10541032 0.7472247 -1.9585714e-06 -0.03358806
0.027375588 -0.02404762 0.0006644787 -0.37374145 -0.0009411953 0.010737891 -0.008576601 -0.056197245
0.049706873 0.08266659 0.4679542 0.11329206 -0.059867375 -0.019543935 0.021042537 -0.08101977
0.026008183 -0.6255342 -0.010233736 0.036236264 -0.03326428 0.038594127 0.056505498 -0.010666335
0.038663235 -0.025570912 -0.03832705 0.000767148 0.027890671 0.00035868754 -0.07546505 0.41821492
0.53605294 0.00013697703 -0.0068822014 -0.055095322 -0.0012259557 0.026260057 -0.062132243 0.044803895
0.029967494 0.66167504 -0.076249346 -0.036300253 -0.0016480257 -0.06583102 -0.029407652 0.07279123
0.055852886 0.030845676 0.038769744 0.099772714 -0.062312894 0.42286918 0.0066036964 -0.07889756
0.035106257 0.0020772093 -0.1444407 0.33323947 0.04262181 -0.29422012 0.09514741 -0.0021491924
-0.0035750123 0.043949008 0.32871056 -0.17504852 -0.23796989 -0.053110175 0.03748049 -0.2604546
-0.0011264723 -0.04380496 0.013569508 -0.0813808 0.20666519 0.034968633 0.062048756 0.06711149
0.5097703 0.6690996 -0.00049218425 0.018944992 -0.009657324 -0.044026345 0.04574245 -0.03566216
-0.034260117 0.056565873 -0.04542803 -0.022290444 -0.016338369 0.05185857 -0.020579362 -0.052888416
-0.4679912 0.09657392 -0.026118645 -0.034830324 0.05017398 -0.035289947 -0.061488565 -0.02214077
0.024571776 -0.09403032 0.6661286 0.0018435016 -0.031400535 0.023922008 0.014741361 -0.00026876826
-0.3355393 0.007726481 0.065722 -0.010983396 -0.005029404 0.052666467 -0.055382796 0.40467122
0.10184678 -0.055518802 0.08187697 0.08279197 -0.07249053 0.024888039 -0.5258912 -0.008838158
0.03282168 -0.008477457 0.031820767 0.05139398 0.04227305 0.03356846 0.026247902 -0.026437912
0.0008645286 0.023251634 -0.0009809901 -0.05978421 0.37536573 0.4953199 0.0006171572 -0.013115103
-0.028354319 -0.017605888 0.041516338 -0.040978517 0.060110454 0.02767083 0.5685527 -0.06676657
-0.032074157 -0.006189557 -0.057584904 -0.025330996 0.06443986 0.033915482 0.024172917 0.035024576
0.088804014 -0.052695554 0.39520502 0.011013398 -0.0011565647 0.031170722 0.0028997497 0.06371702
0.3000072 0.04476921 -0.2650538 0.08713081 0.088351265 -0.055759776 0.039076574 0.27360818
-0.14751491 -0.19771959 -0.046858985 0.045672264 -0.22799394 0.019565996 -0.039220043 0.10714261
-0.03776858 0.18734905 0.060223654 0.1184682 0.1315788 1.0632646 1.34199 -0.06979727
0.035496477 0.006953391 -0.07136933 0.077852465 0.07321414 0.01747301 0.04499013 -0.09364924
-0.006739015 -0.030929439 0.08692318 -0.03883276 -0.076643325 -0.80200833 0.02078215 0.06838249
-0.06982612 0.03899729 -0.060022406 -0.053626522 0.079437956 0.100214675 -0.17946616 1.26993
0.0076589566 -0.052284308 0.04174417 -0.02644643 -0.009831738 -0.61897814 0.027381783 0.034198496

layer_6.bias f4 [219]
00000000: 33de 0041 3fe0 fe40 dd0b 0a41 312b 9f40
00000010: 81d0 f240 da70 0241 a1b2 0241 e73b 0941
00000020: 576d 0941 07bb 0a41 2824 1f3c fa68 27be
00000030: 8d7f 1141 415d 0c41 fe4e 1541 9e73 fb40
00000040: 89d9 11be 5a59 1941 361c b640 757c 0141
00000050: 4811 e13c 41ba 0dbe 6a4b aabc d62b e6bc
00000060: d9e4 ef40 cd81 eb40 d867 0341 835d e340
00000070: b232 543f ad41 a53f 1aa6 e540 ab9d 0241
00000080: be61 0341 2229 0641 d165 09be c87c 0bbe
00000090: a8e3 0e41 ce69 0641 636c 1241 f946 f040
000000a0: c118 12be 2bf8 1441 df3c 0441 9141 f940
000000b0: 9c3c 72bd 622c 1abe ed92 4ebc 75a8 e7bd
000000c0: d8f8 d640 9e0b c840 2f6e ed40 270c c840
000000d0: 44da 5b40 51c0 e040 8dca da40 01af dd40
000000e0: 3a6c ec40 c3ac ef40 10d5 0dbe 713f e5bc
000000f0: a50b 0141 e23c f540 c9f7 0941 79f7 d040
00000100: 93db a4bd 15f2 0a41 7781 f040 aea3 da40
00000110: a120 9ebd cb05 203d ea2a 81bd fe15 c7bd
00000120: 7ac8 cfbd 9920 1541 bb08 ab40 5085 1d41
00000130: 1cb7 0c41 5898 0941 2f10 0141 2280 2541
00000140: 92ff 0e41 019d 0f41 68aa 0641 f883 e640
00000150: 0fe2 0e41 60c9 b2bd 2ea5 2141 aa05 3941
00000160: 8134 3641 d55b 3b41 75ee 3f41 8208 3341
00000170: 0b32 2f41 4325 3f41 9899 4441 6826 2d41
00000180: 51c5 2f41 6702 2b41 45cf 2841 4325 c7ba
00000190: 89df 1e41 a245 2a41 2637 2941 794c 2541
000001a0: d096 ea40 d1f0 1341 431c 2941 6875 2f41
000001b0: 6643 2440 fbdc 3541 6914 2e41 7bbb 2841
000001c0: 48ca 2c41 a710 2f41 a4a5 2f41 a2b6 3241
000001d0: a1bb 3841 3472 2d41 441f 3441 8b7e 3b41
000001e0: fbf7 2541 a79d 9840 4c5c 3d41 adb7 3e41
000001f0: d8f5 3b41 f763 3c41 96d9 3941 640f 3741
00000200: fd90 473c a68e 9740 4828 3b41 9bc9 3e41
00000210: 8c2b 4041 bdcb 4341 aec1 4241 406d 4541
00000220: 129a 4741 b52a 4a41 f248 4741 6d02 4341
00000230: 0e24 4641 e0a1 4941 712e 4b41 43d0 4541
00000240: 1f19 4341 b424 4441 efb2 73bc 8982 c1bc
00000250: 09ec d73c d651 f3bd 8973 263d 8a6a 33bd
00000260: 1a01 193f b4bc 3bbd 5958 c6bb 4bdd c43d
00000270: 009b 633e b8fd 6e3e f82a bbbd d8d0 fa3b
00000280: cdd4 dcbc bee8 54bd e2d5 f13e 26b4 093d
00000290: 7966 fc3e 1844 dfbd 79cb 3b3e fd32 b5bc
000002a0: e36b d53c 6576 593c 72fa 273f 67e3 1a3d
000002b0: 6df7 d9bc 03cf e43e d43f 2abd 950e 8fbd
000002c0: 12c8 cdbd 9a71 6cbd fae9 bdbd e053 6a3f
000002d0: 3518 cf3b 2183 26bd 77c9 8ebc 416b edbd
000002e0: 1081 c53e 56f7 febd 728b 0fbd d17b 223d
000002f0: f28c e8bd a7cf b03c 5d74 633b b27b c33e
00000300: fb82 173e 8ce2 f63e cd9c f3bd 2426 853e
00000310: a5a0 92bd ceca 063f aa19 c43e e3e7 663f
00000320: f4d6 49bd 5cc0 f33d 0495 8cbc 287a 4cbc
00000330: 4071 c2bc e323 cf3c 099b 1fbd c3ef d9bd
00000340: adaf d4bd a337 d93d 8ec0 723c ff69 2a3f
00000350: 6135 0a3e a322 f6bd 7476 44bd 1f24 813e
00000360: 9f63 4a3e 786c 08be 498b cb3b
8.054248 7.964874 8.627896 4.9740224 7.587952 8.152552 8.168611 8.577125
8.589194 8.670661 0.00971321 -0.16348639 9.09364 8.772767 9.331785 7.8578634
-0.1424314 9.584314 5.6909437 8.092885 0.02747406 -0.13840581 -0.020787913 -0.028097074
7.4966855 7.359595 8.2128525 7.105165 0.82889855 1.2910668 7.176526 8.163493
8.211363 8.385042 -0.13417746 -0.13621819 8.93058 8.400831 9.151462 7.5086637
-0.14267255 9.310588 8.264861 7.7892537 -0.059139833 -0.15055993 -0.012608272 -0.113114275
6.7178764 6.251418 7.4197 6.2514834 3.4351969 7.023476 6.8372254 6.927613
7.3882113 7.489839 -0.13850808 -0.027984353 8.065343 7.663682 8.622994 6.530209
-0.08049693 8.684102 7.515804 6.8324804 -0.07721067 0.039068025 -0.06307013 -0.097209916
-0.1014566 9.320458 5.3448157 9.845047 8.794704 8.599693 8.066451 10.343782
8.937395 8.975831 8.416603 7.2036095 8.93019 -0.087298155 10.102827 11.563883
11.387818 11.70992 11.995717 11.189577 10.9497175 11.946597 12.287498 10.821877
10.985673 10.6880865 10.550603 -0.00151936 9.929574 10.642 10.575964 10.33117
7.3309097 9.246293 10.5694 10.966164 2.5666137 11.36645 10.879983 10.545772
10.799385 10.9415655 10.97794 11.169588 11.545808 10.840382 11.257633 11.718394
10.373042 4.7692447 11.835033 11.919843 11.74752 11.7744055 11.615622 11.441257
0.012180564 4.736163 11.697334 11.92422 12.010632 12.237241 12.172285 12.339172
12.475115 12.6354265 12.455309 12.188092 12.383802 12.60202 12.698838 12.363345
12.193633 12.258961 -0.014874204 -0.023621814 0.026357668 -0.11880843 0.040637527 -0.043802775
0.59767306 -0.04583426 -0.0060530123 0.09612521 0.22227097 0.23338974 -0.09139055 0.0076542906
-0.02695694 -0.051979773 0.47233492 0.03361907 0.4929693 -0.1090166 0.18339337 -0.02211904
0.026052421 0.013272856 0.65616524 0.037814524 -0.02660724 0.44689187 -0.041564777 -0.06985203
-0.10047926 -0.057725526 -0.09273143 0.91534233 0.0063200244 -0.040652398 -0.01743005 -0.11592723
0.3857503 -0.12449519 -0.035045095 0.03966886 -0.11355008 0.021583391 0.003470681 0.3818031
0.14796059 0.48219717 -0.11895142 0.2600566 -0.07159547 0.52653205 0.3830083 0.9019758
-0.04927726 0.11901924 -0.0171609 -0.012480296 -0.023735642 0.025285667 -0.038966212 -0.10641434
-0.1038507 0.10606315 0.014816416 0.6656799 0.13496925 -0.12018325 -0.04796453 0.2522287
0.19764565 -0.13322628 0.0062116724
