autoencoder/model1_encoder.pt (torch, 131151 bytes, 8 tensors)

layer_1.weight f4 [109, 219]
0	0xbd5ccd08	-0.05390647
1	0xbcb8e262	-0.022568885
2	0x3ccf559b	0.025309375
3	0xbdc50538	-0.09620136
4	0xbda2a954	-0.07942453
5	0xbd3b96c6	-0.045798086
6	0xbd45c03e	-0.04827904
7	0xbd100f57	-0.03517088
8	0x3c8870b2	0.0166553
9	0x3c7a7d16	0.015288612
10	0xbd6cb1d0	-0.057786763
11	0xbd831cc8	-0.06401974
12	0xbda14a3b	-0.078754865
13	0xbb233fc0	-0.0024909824
14	0x3cd29e95	0.025710383
15	0x3c669de8	0.014075734
16	0x3d22be2d	0.039732147
17	0xbbc78dab	-0.006089886
18	0xbdd05ff6	-0.10174553
19	0xbd21aef2	-0.03947348
20	0xbd1ebeca	-0.03875617
21	0x3b5d8eb2	0.0033806977
22	0xbd71d84b	-0.059044164
23	0x3d89cbcc	0.06728324
24	0x3a883a0d	0.0010393277
25	0xbc3adc38	-0.011405043
26	0x3c7d56ba	0.015462572
27	0xbd8a63a6	-0.06757288
28	0x3ca4e87b	0.020130387
29	0xbd5889c4	-0.05286576
30	0xbd2460de	-0.040131442
31	0x3d213df0	0.03936571
32	0xbd84d6a3	-0.06486251
33	0x3c96a846	0.018390786
34	0xbd173e4d	-0.03692465
35	0xbcb614c1	-0.022226693
36	0x3ca8730f	0.020562677
37	0xbd2738b1	-0.04082555
38	0x3ca676ce	0.020320322
39	0xbd44ae9e	-0.04801809
40	0x3d2a8a1e	0.041635625
41	0xbd407742	-0.046988733
42	0xbcac17e7	-0.021007491
43	0xbd871b0b	-0.06596955
44	0x3d591f54	0.053008392
45	0xbd15ee96	-0.036604486
46	0x3c98a5b1	0.018633695
47	0xbd533217	-0.05156144
48	0x3d2bf86d	0.041984964
49	0x3d468af0	0.048472345
50	0xbd1ef795	-0.03881033
51	0xbba3a290	-0.004993744
52	0x3ca7c5aa	0.020479996
53	0x3d146ae0	0.036234736
54	0x3d913961	0.07091022
55	0xbd258238	-0.04040739
56	0x3cfabff3	0.030609107
57	0x3d80ea0e	0.062946424
58	0xbd72ed1c	-0.059308156
59	0x3bd516a9	0.0065029454
60	0x3d501db3	0.050809573
61	0x3cdb9b4d	0.026807452
62	0x3aaf3329	0.0013366687
63	0x3d45cd91	0.048291747
64	0x3d80a402	0.06281282
65	0x3d8530aa	0.065034226
66	0x3b430efb	0.0029763568
67	0x3d979294	0.074010044
68	0x3d7caa08	0.061685592
69	0x3d49b293	0.049242567
70	0xbd867d2e	-0.06566845
71	0x3d493a17	0.049127664
72	0x3d88139c	0.06644365
73	0x3cd90faf	0.026496736
74	0xbb414f7b	-0.0029496837
75	0xbd27f333	-0.041003417
76	0xbd5a158f	-0.053243216
77	0x3c33c8d7	0.010973177
78	0x3cfb7116	0.030693572
79	0x3c7ef0fb	0.015560384
80	0xbd511c36	-0.051052295
81	0x3d4b8fb8	0.049697608
82	0x3ba2bb0f	0.004966147
83	0xbd2355ee	-0.03987687
84	0x3d0b7557	0.03404745
85	0xbd2b958f	-0.041890677
86	0x3d79fe2c	0.061033413
87	0xbce55ee5	-0.02799935
88	0x3c1e3b39	0.0096576745
89	0x3ca28b9f	0.019841967
90	0x3d318dfb	0.043348294
91	0xbcc15db5	-0.023604253
92	0x3cf58032	0.029968355
93	0x3bebece5	0.007199871
94	0x3d0f4838	0.034980983
95	0xbd5323d1	-0.05154783
96	0xbcb4656b	-0.022021016
97	0x3d126d10	0.03574854
98	0x3cf21012	0.029548679
99	0x3d1c4293	0.038149428
100	0xbd8d1706	-0.06889157
101	0x3bd2d2f3	0.0064338385
102	0x3b5f56bd	0.00340788
103	0x3d4df5a0	0.050283074
104	0xbd58d5d5	-0.0529383
105	0x3ca66863	0.020313447
106	0xbd7bcd55	-0.061475117
107	0xbcede841	-0.029041411
108	0x3ac8fe07	0.0015334495
109	0x3d68d400	0.056842804
110	0xbc355b93	-0.011069196
111	0x3cf21080	0.029548883
112	0xbd8a4a6b	-0.06752475
113	0xbd934da5	-0.07192544
114	0x3c01a731	0.007913397
115	0xbd83458b	-0.06409749
116	0x3c5104d7	0.012757502
117	0xbd70f059	-0.058822963
118	0xbd911cbe	-0.0708556
119	0x3bc9d9df	0.0061600055
120	0xbcb46d24	-0.022024699
121	0xbda90eec	-0.08254799
122	0xbd50f099	-0.0510107
123	0xbd6339fd	-0.055475224
124	0xbd8752fe	-0.066076264
125	0xbc5d044d	-0.013489795
126	0x3d11b1b9	0.03556988
127	0x3cf5600a	0.029953022
128	0xbd9ea3cc	-0.077460855
129	0xbced451c	-0.028963618
130	0x3bf025c7	0.007328722
131	0xbd7432a6	-0.059618615
132	0xbc7e052c	-0.015504163
133	0x3ccd777a	0.025081385
134	0x3c9ec3a1	0.019380393
135	0x3cd046a7	0.025424315
136	0x3d0fdaf6	0.035120927
137	0x3b71dd09	0.003690543
138	0xbd1441dc	-0.03619562
139	0xbcaf8051	-0.02142349
140	0xbd86cace	-0.06581651
141	0xbbd74b82	-0.0065702805
142	0x3ce23666	0.02761383
143	0xbd941897	-0.07231253
144	0xbd4ce810	-0.050026
145	0xbd57d1d5	-0.052690346
146	0x3c16ea92	0.009211199
147	0xbcaa1052	-0.020759735
148	0xbbf867d7	-0.007580738
149	0xbd240865	-0.04004707
150	0x3d5334be	0.05156397
151	0xbbed726f	-0.0072463076
152	0x3ccdf586	0.025141489
153	0xbd5ac940	-0.053414583
154	0x3cf6094e	0.030033734
155	0x3cfeab10	0.031087428
156	0xbc80cda6	-0.01572306
157	0xbd923225	-0.071384706
158	0x3d1d8ae9	0.038462553
159	0x3d1c741c	0.038196668
160	0xbd5eec40	-0.054424524
161	0x3b511b44	0.003190712
162	0xbc4c6b4f	-0.012476756
163	0xbcbf5189	-0.023354309
164	0xbc5bc17d	-0.01341283
165	0x3d1dafe1	0.03849781
166	0xbc9fe632	-0.019518945
167	0x3d1f11c1	0.03883529
168	0xbcbea634	-0.023272611
169	0x3d597093	0.053085875
170	0x3d2fb23a	0.04289458
171	0x3d3305c8	0.043706685
172	0xbd5af7ba	-0.053458907
173	0x3b8dc99f	0.0043270136
174	0xbd0e648b	-0.034763854
175	0x3d34ab19	0.044108484
176	0x3bfe2c61	0.007756755
177	0xbd1317d4	-0.035911396
178	0x3d3bee24	0.045881405
179	0x3d21dc14	0.039516523
180	0xbd815f33	-0.06316986
181	0xbcbad53e	-0.02280676
182	0xbbcb6f90	-0.0062083676
183	0xbd5b75aa	-0.05357901
184	0xbd13c449	-0.036075864
185	0xbd613e44	-0.05499102
186	0xbccc6449	-0.024950163
187	0x3c8aa683	0.016925102
188	0x3d5d653a	0.054051615
189	0x3cc0c588	0.02353169
190	0xbd77d163	-0.06050242
191	0xbcda6bf9	-0.026662813
192	0x3d2d7fdb	0.04235826
193	0xbd0c7c90	-0.03429848
194	0xbbdf2e3f	-0.006810933
195	0xbd6cf723	-0.057852875
196	0x3c184c25	0.009295498
197	0x3a93f1d4	0.001128728
198	0xbd465115	-0.04841717
199	0xbd10153c	-0.0351765
200	0x3d58c096	0.05291804
201	0x3c63f995	0.013914485
202	0xbd3108bd	-0.043221224
203	0x3b9f179c	0.0048551094
204	0x3d1d23a3	0.038364064
205	0x3ab69dcd	0.0013932526
206	0xbc5da9c4	-0.013529245
207	0xbaabbb4f	-0.0013102087
208	0xbcb1970b	-0.021678468
209	0xba98b3bf	-0.0011650248
210	0xbc8fff25	-0.017577717
211	0xbca6dcbc	-0.020368926
212	0x3d2ed8c5	0.042687196
213	0xbc453005	-0.0120353745
214	0xbd834c75	-0.064110674
215	0xbd500092	-0.050781794
216	0xbd909e39	-0.070614286
217	0xbc972308	-0.018449321
218	0xbc8e3223	-0.017357891
219	0x3d3803af	0.044925388
220	0x3d281f27	0.041045334
221	0xbbdd80a4	-0.00675972
222	0xbd3be8a4	-0.04587616
223	0xbc5c9830	-0.013464019
224	0x3bd7ea4e	0.0065892106
225	0x3cf875a4	0.030329533
226	0x3d88211e	0.066469416
227	0x3c105e7a	0.0088115875
228	0x3d7ecd6a	0.062207617
229	0xbd4fb26f	-0.050707277
230	0xbd225f24	-0.039641514
231	0xbcc2e378	-0.023790106
232	0xba6901c6	-0.0008888509
233	0xbd715142	-0.058915384
234	0x3c50c4ae	0.012742205
235	0x3d0e69d3	0.03476889
236	0xbd41afee	-0.04728692
237	0x3d5ee5e9	0.05441848
238	0xbd37f8dd	-0.04491507
239	0xbd650b23	-0.055918824
240	0x3cb68c35	0.022283653
241	0x3bc507ad	0.006012878
242	0xbcf432f8	-0.02980946
243	0xbd873a90	-0.06602967
244	0xbd3e013c	-0.046387896
245	0x3d120ee0	0.035658717
246	0x3d769254	0.060198143
247	0x3b94bdf0	0.004539244
248	0x3c3b2e66	0.0114246365
249	0xbd23ce3a	-0.039991595
250	0xbbeb0e14	-0.007173309
251	0x3d17ac3a	0.037029482
252	0x3d39b4cc	0.045338437
253	0xbd830cdb	-0.06398936
254	0x3d18b31b	0.037280183
255	0x39cadc50	0.00038692588

layer_1.bias f4 [109]
0	0x3cb50bfc	0.022100441
1	0x3c284c7a	0.01027214
2	0x3b10feee	0.0022124606
3	0xbd0e9f26	-0.034819745
4	0x3bdca03d	0.006732969
5	0xbb397c3b	-0.0028302807
6	0x3c998eff	0.018744944
7	0xbd80e592	-0.06293787
8	0xbeaa2fc8	-0.3323958
9	0xbe1b8d03	-0.1519051
10	0xbd43f9bd	-0.04784559
11	0x3d06e6a3	0.032934796
12	0xbd21b462	-0.039478667
13	0xbb59c40b	-0.0033228423
14	0x3d81caea	0.06337531
15	0xbc821127	-0.01587732
16	0xbd86416a	-0.065554455
17	0xbd45e66d	-0.048315454
18	0xbd57e8a6	-0.052712105
19	0x3d4667c1	0.04843879
20	0xbd5185e4	-0.05115308
21	0x3d2e63bd	0.042575587
22	0x3c95a128	0.018265322
23	0xbbc1fcb5	-0.0059200176
24	0x3d15de68	0.036589056
25	0xbdba800a	-0.09106453
26	0xbd493ada	-0.04912839
27	0x3ca1148e	0.019663122
28	0xbd87542c	-0.066078514
29	0xbd514217	-0.05108842
30	0x3d1665d7	0.036718216
31	0x3d81a0d4	0.06329504
32	0x3d37ce7a	0.044874646
33	0xbcda3b67	-0.026639653
34	0xbc7053a4	-0.014668379
35	0xbbe6265b	-0.0070236153
36	0x3c49eed0	0.012325004
37	0xbdb942c9	-0.090459414
38	0xbca4811f	-0.020081101
39	0x3d1941b7	0.037416186
40	0x3c85d47a	0.016336668
41	0x3d50b25c	0.050951347
42	0x3c921e3c	0.017836682
43	0xbcb901d4	-0.02258388
44	0xbc0b2381	-0.0084923515
45	0xbd8e117f	-0.06936931
46	0x3d6663d5	0.05624755
47	0xbd722e26	-0.05912604
48	0x3d8a4e82	0.067532554
49	0x3b635d27	0.0034692974
50	0xbd424971	-0.04743332
51	0xbda8ad29	-0.08236153
52	0xbc3a97d2	-0.011388736
53	0x3be10e40	0.006868154
54	0x3d143140	0.03617978
55	0x3c3d965b	0.011571492
56	0xbd898dd3	-0.06716504
57	0x3cedc268	0.029023364
58	0x3ce523e0	0.027971208
59	0x3d58129f	0.052752133
60	0x3d2972ad	0.04136913
61	0xbd6b2b85	-0.05741455
62	0xbec073d1	-0.3758836
63	0xbd9d40b4	-0.07678357
64	0xbbe68798	-0.007035207
65	0xbd052a8a	-0.03251127
66	0xbc267b5f	-0.01016125
67	0xbda7ee8d	-0.08199797
68	0x3ca19736	0.019725423
69	0x3cb07737	0.021541221
70	0xbd0fe613	-0.035131525
71	0x3f00d6f0	0.5032797
72	0xbd03010c	-0.03198342
73	0xbd6b4383	-0.05743743
74	0xbd78f677	-0.060781922
75	0xbcadf2ca	-0.021233935
76	0xbd50c021	-0.05096448
77	0xbce4a6c6	-0.027911555
78	0xbc37dc77	-0.0112219965
79	0xbc31d56c	-0.010854106
80	0xbd02d07f	-0.03193712
81	0x3da7d605	0.08195118
82	0x3c87e6fc	0.016589634
83	0xbc2a3178	-0.010387771
84	0x3ce86ff3	0.028373694
85	0xbd6467f5	-0.055763204
86	0x3d3de698	0.04636249
87	0xbd1572af	-0.036486324
88	0x3bbf38b3	0.0058356165
89	0xbd866fb0	-0.065642715
90	0x3b68e226	0.0035535186
91	0x3f03ee52	0.5153552
92	0x3c6b02b1	0.014343903
93	0xbd189680	-0.037252903
94	0x3b5ab417	0.0033371502
95	0xbd3ab604	-0.04558374
96	0xbde42f75	-0.11141864
97	0xbc0ac03c	-0.008468684
98	0x3c6870ce	0.014187051
99	0x3cff3465	0.031152913
100	0x3cc13ce3	0.023588603
101	0xbd1a8773	-0.03772683
102	0x3b90397e	0.004401385
103	0xbee05267	-0.43812868
104	0xbd0ed02d	-0.0348665
105	0x3d412d61	0.047162417
106	0x3d66ce86	0.0563493
107	0x3ecce18a	0.40015823
108	0xbd2c716f	-0.042100366

layer_2.weight f4 [54, 109]
0	0xba9f9ec9	-0.0012178059
1	0xbd4c8396	-0.049930178
2	0x3c37245c	0.011178102
3	0xbdaab6ba	-0.083356336
4	0xbd24abea	-0.040203013
5	0xbdcb50a1	-0.09927488
6	0xbdd29684	-0.10282615
7	0xbd7e1221	-0.062029008
8	0xbda4ac76	-0.08040707
9	0xbdde6dd8	-0.10860795
10	0xbd9e361e	-0.07725166
11	0xbd1a75c1	-0.037709955
12	0x3d9bf5cf	0.07615244
13	0x3ca1907c	0.019722216
14	0xbc9e45d9	-0.019320415
15	0xbe004fd5	-0.12530454
16	0x3ad09db6	0.0015916142
17	0x3d8c12b2	0.06839503
18	0x3ca14834	0.01968775
19	0xbcb5cf76	-0.022193652
20	0x3dc10767	0.0942524
21	0xbb20aac9	-0.0024515858
22	0xbd101c92	-0.035183497
23	0x3d597d1d	0.053097833
24	0xbcdc0c3d	-0.026861304
25	0xbd062631	-0.032751266
26	0xbc2a1ec8	-0.010383315
27	0x3d4fb392	0.05070836
28	0x3dbd402c	0.092407554
29	0xbd9ed4cf	-0.07755434
30	0xbcb09a5c	-0.02155798
31	0x3c92effa	0.017936695
32	0x3d90e646	0.07075171
33	0xbc5bbb9b	-0.013411428
34	0x3d879783	0.066206954
35	0xbc6b7808	-0.014371879
36	0x3c8fed69	0.01756926
37	0xbdc43bac	-0.09581694
38	0x3dbe586e	0.092942104
39	0x3bf49a23	0.0074646636
40	0xbd5bc3fa	-0.053653695
41	0x3bae9630	0.0053279623
42	0xbdacd1c2	-0.08438446
43	0x3d973a31	0.07384146
44	0xbd525926	-0.05135455
45	0xbd2de590	-0.042455256
46	0x3c34a5d1	0.011025862
47	0xbd8c13b2	-0.06839694
48	0x3cccdf56	0.025008839
49	0xbe027519	-0.12739982
50	0x3d4db5f3	0.05022235
51	0xbd4cd708	-0.050009757
52	0x3dac6dd2	0.08419384
53	0xbb4bef17	-0.003111785
54	0xbd8ebb9b	-0.06969377
55	0xbd932137	-0.071840696
56	0xbd345706	-0.044028305
57	0xbd5d63ff	-0.05405044
58	0xbcb94263	-0.022614663
59	0x3db01c85	0.0859919
60	0x3c39981d	0.011327771
61	0x3ab18753	0.0013544358
62	0xbe8d8710	-0.27642107
63	0xbda54342	-0.08069469
64	0xbd968a68	-0.07350618
65	0x3d6aa949	0.05729035
66	0xbd0288a5	-0.031868596
67	0xbd397395	-0.045276243
68	0x3d7ecec0	0.06220889
69	0xbd0c15a1	-0.034200314
70	0xbd14c2f3	-0.03631873
71	0xbbafc928	-0.005364556
72	0x3ca65c88	0.020307794
73	0xbd78eec5	-0.060774583
74	0xbd8e23c9	-0.06940419
75	0xbccec90c	-0.025242351
76	0xbd9549b3	-0.07289448
77	0xbd8fdd01	-0.07024575
78	0xbd878651	-0.06617416
79	0x3d310440	0.043216944
80	0x3cba2152	0.022720966
81	0xbdb1a603	-0.08674242
82	0x3da388e3	0.079850934
83	0xbda00b27	-0.07814627
84	0x3d2f58a9	0.042809162
85	0x3d9cad4d	0.07650242
86	0x3d819636	0.063274786
87	0x3d5b747a	0.053577878
88	0xbdc17fbc	-0.094481915
89	0x3d0f31e9	0.034959707
90	0xbda5189e	-0.08061336
91	0xbe8676d1	-0.26262525
92	0x3b4eef44	0.003157572
93	0x3c83f24c	0.016106747
94	0xbd0e88d9	-0.034798477
95	0xbd5b44c7	-0.053532388
96	0xbd273130	-0.040818393
97	0x3d9514ce	0.07279359
98	0xbd31d9f3	-0.043420743
99	0xbd715615	-0.058919985
100	0x3d0fc49f	0.03509962
101	0xbd956d25	-0.07296208
102	0xbd5f06c6	-0.05444982
103	0xbc902068	-0.017593578
104	0xbd5699c8	-0.05239275
105	0x3d3d0ea7	0.04615655
106	0x3c552eee	0.013011677
107	0xbda750b5	-0.081696905
108	0xba036307	-0.00050120096
109	0x3d1bfc19	0.038082216
110	0x3d5181d5	0.051149208
111	0xbdd08651	-0.10181869
112	0xbb5b0e05	-0.0033425104
113	0xbcfa106e	-0.030525412
114	0x3d8ff061	0.070282705
115	0xbe07e473	-0.1327074
116	0x3d9f6b16	0.07784097
117	0xbddc0bf3	-0.10744467
118	0xbe4ae299	-0.19813003
119	0xbc8e0bf0	-0.017339677
120	0x3cee27f1	0.02907178
121	0x3da7f410	0.08200848
122	0xbc5e45fb	-0.013566489
123	0x3da2db7f	0.07952022
124	0xbb8a71a0	-0.004224971
125	0x3da23ccd	0.07921753
126	0xb9fd7651	-0.00048344073
127	0xbd710803	-0.05884553
128	0xbc865d0e	-0.016401794
129	0xbdc259a1	-0.094897516
130	0x3cc684b0	0.024233192
131	0x3c83fd18	0.016111895
132	0xbd817915	-0.06321923
133	0xbd2842ca	-0.04107932
134	0x3d2ec54b	0.042668622
135	0x3cd54266	0.026032638
136	0xbc23dfe2	-0.010002108
137	0x3d40398c	0.04692988
138	0x3c985b93	0.018598353
139	0xbc796863	-0.015222642
140	0x3ccb55cb	0.024821183
141	0x3c1dc491	0.009629385
142	0xbd60b399	-0.054858778
143	0xbcf2eeba	-0.02965485
144	0x3cd58e6d	0.02606889
145	0x3db95d9c	0.09051058
146	0x3d0d7982	0.034539707
147	0x3cd4063f	0.025881885
148	0xbd0e4f19	-0.034743402
149	0xbc7b218a	-0.015327821
150	0xbc683e4a	-0.014175007
151	0x3dc40107	0.095705085
152	0x3da606bf	0.081067555
153	0xbe28cbf0	-0.16484046
154	0xbda4b741	-0.080427654
155	0x3db03465	0.086037435
156	0x3dc3bd33	0.09557571
157	0xbc99dc0b	-0.018781682
158	0xbd062683	-0.03275157
159	0x3c371ba8	0.011176027
160	0xbd81b92c	-0.06334147
161	0xbd93dee0	-0.072202444
162	0x3c6699f5	0.014074792
163	0x3dac66d2	0.08418049
164	0xbd84c1bc	-0.064822644
165	0x3b9b7301	0.004743934
166	0x3d437c95	0.047726233
167	0x3c1d6eb4	0.009608913
168	0xbcad1e8d	-0.021132732
169	0x3d18177c	0.03713177
170	0x3c9355ff	0.017985342
171	0xbe273e30	-0.16332316
172	0x3d81f40c	0.06345376
173	0x3d4d6dcd	0.050153542
174	0x3ca5e19d	0.020249182
175	0xbd873582	-0.06602003
176	0x3bffe503	0.0078092827
177	0x3d0ecb3f	0.0348618
178	0x3d629a33	0.055322837
179	0xbd5e4dc8	-0.054273397
180	0xbb3ead5d	-0.0029095032
181	0xbde780d7	-0.11303871
182	0x3c3956fb	0.011312242
183	0xbd86b446	-0.06577353
184	0x3d96ab55	0.07356898
185	0xbd29199e	-0.041284196
186	0x3d4932c9	0.049120698
187	0xbd2910a4	-0.041275635
188	0x3bf81d67	0.0075718644
189	0x3ba8a66d	0.0051467926
190	0x3d36393b	0.044488173
191	0xbc659451	-0.014012412
192	0x3ce1f21a	0.027581263
193	0x3cd2bbe7	0.025724364
194	0x3dad038a	0.08447941
195	0x3c524c04	0.012835506
196	0xbd7fd7fd	-0.06246184
197	0xbda1ed0f	-0.079065435
198	0x3c19c941	0.009386362
199	0x3ca262dc	0.01982253
200	0xbe457ab9	-0.19285096
201	0xbdc830cd	-0.09774933
202	0xbd989939	-0.074511
203	0xbb907ef7	-0.0044096666
204	0x3d40da8c	0.047083423
205	0xbe0eea07	-0.13956462
206	0xbd1e69ca	-0.038675107
207	0xbdb4ff09	-0.088377066
208	0xbe06f0e9	-0.13177837
209	0x3dcac469	0.099007435
210	0x3ced17f8	0.028942093
211	0xbe20481c	-0.15652508
212	0xbe083f0e	-0.13305303
213	0xbe1093f9	-0.14118947
214	0xbd86a3c3	-0.06574204
215	0x3cc8cd99	0.0245121
216	0xbcc99a76	-0.024609786
217	0x3db8ee2e	0.09029804
218	0xbd8cb0e0	-0.06869674
219	0x3ceae907	0.02867557
220	0x3db9687c	0.09053132
221	0x3dd1c9ed	0.102435924
222	0x3cbf7d33	0.02337513
223	0xbd462fc9	-0.048385415
224	0x3d38dc55	0.045132
225	0xbd2555e8	-0.04036513
226	0x3b8a981c	0.0042295586
227	0xbb8853b4	-0.004160369
228	0x3c8aaab1	0.016927095
229	0xbcdb9df4	-0.026808716
230	0xbd877dce	-0.06615792
231	0xbd4b5db5	-0.049649913
232	0x3da8635f	0.082220785
233	0x3d903dbb	0.07043024
234	0xbae5bcfb	-0.0017527634
235	0x3ce7300a	0.028221149
236	0x3bb23996	0.0054389937
237	0x3cbfc7d5	0.023410717
238	0x3d69c2c7	0.05707052
239	0xbd6b4a80	-0.057444096
240	0xbcaffab7	-0.021481855
241	0x3d47b46b	0.048756044
242	0x3d66e854	0.05637391
243	0xbc90c6ac	-0.01767286
244	0xbda110ab	-0.07864507
245	0xbd8c254e	-0.06843053
246	0xbd032a9d	-0.03202306
247	0xbd945e83	-0.07244589
248	0x3dac78cb	0.08421477
249	0x3e1f446b	0.15553443
250	0x3d90563d	0.07047699
251	0x3b9c3324	0.0047668386
252	0xbd3aa062	-0.04556311
253	0xbdbbfaab	-0.091786705
254	0xbbc1aa6f	-0.00591021
255	0x3cf60d85	0.030035743

layer_2.bias f4 [54]
0	0xbe23bd9d	-0.159903
1	0xbd22fcf2	-0.03979201
2	0xbf2bf8cb	-0.671765
3	0xbb1cacb3	-0.0023906648
4	0xbef22ad0	-0.47298288
5	0xbe5e58c1	-0.21713544
6	0xbdf67b88	-0.120352805
7	0xbd8f3e9e	-0.06994365
8	0xbfbeae0e	-1.4896867
9	0xbe2bcf58	-0.16778314
10	0x3ff70b6e	1.9300363
11	0x3d1a09bf	0.03760695
12	0xbc78397e	-0.015150426
13	0xbe6a370c	-0.22872561
14	0xbe1c6b09	-0.15275206
15	0xbdc5b073	-0.09652796
16	0xbe2244a7	-0.15846501
17	0xbddbb30b	-0.10727509
18	0xbe234983	-0.15946011
19	0xc05c9010	-3.4462929
20	0xbe38a076	-0.18029961
21	0x3f4a244c	0.78961635
22	0x3e72680c	0.23672503
23	0xbe27fca0	-0.16404963
24	0xbdc850e8	-0.09781057
25	0xbcda3513	-0.026636636
26	0x3e8fa175	0.2805287
27	0xbdb406ed	-0.087903835
28	0xbf9d362b	-1.2282156
29	0xbf5cc621	-0.8623982
30	0xbfd21da2	-1.6415293
31	0xbdb24e5c	-0.08706352
32	0x3eace701	0.33769992
33	0xbe6346df	-0.22195004
34	0xbbdb6b3c	-0.006696133
35	0xbf80b88b	-1.0056318
36	0xbda454f6	-0.080240175
37	0xbfce8fac	-1.6137595
38	0xbde709fb	-0.112812005
39	0xbf1a0719	-0.6016708
40	0xbe021e03	-0.12706761
41	0xbdb92713	-0.09040656
42	0xbe3349c3	-0.17508607
43	0xbded2d19	-0.11580867
44	0x3f712b32	0.94206536
45	0xbe2eac75	-0.17057975
46	0xbe1da7a0	-0.15395975
47	0xbf5b0c7b	-0.8556592
48	0x3e136132	0.14392546
49	0xbe02ccac	-0.12773389
50	0x3ce806ed	0.028323615
51	0xbd9f6d73	-0.07784548
52	0xbdeab0ce	-0.11459504
53	0xbe390784	-0.18069273

layer_3.weight f4 [27, 54]
0	0xbd3c3714	-0.045950964
1	0xbcb73148	-0.022362366
2	0xc0f112a2	-7.5335245
3	0x3ce7f4c5	0.028314957
4	0xbbbe6cbd	-0.0058113025
5	0x3d4c279a	0.049842454
6	0x3d8def6c	0.06930432
7	0xbb9603a1	-0.0045780693
8	0x3c2b8ccd	0.010470581
9	0xbbaefdc4	-0.00534031
10	0x3e52c722	0.20583776
11	0x3d2a96b2	0.04164762
12	0x3d8e95f6	0.069621965
13	0xbbfc6a8b	-0.0077031306
14	0x3cf9eed1	0.030509384
15	0xbd352186	-0.044221424
16	0xbd947549	-0.07248933
17	0xbe0b39bd	-0.13596244
18	0x3d4c62af	0.0498988
19	0x3cde7fdc	0.027160577
20	0x3dc0805f	0.09399485
21	0x3ecc4b63	0.39901266
22	0xbd6e1b65	-0.058131594
23	0xbd2619a5	-0.0405518
24	0x3ca3a21e	0.019974764
25	0xbda4607e	-0.08026217
26	0xbdf70bda	-0.120628074
27	0xbd1edc71	-0.038784448
28	0x3c5eb2e7	0.013592458
29	0xbce7e227	-0.02830608
30	0xbb069338	-0.0020534527
31	0xbbbf5a70	-0.0058396384
32	0x39bbc5b2	0.00035814714
33	0xbc3cd78a	-0.011525998
34	0xb9bcbdc2	-0.00035999535
35	0x3b9fd93b	0.004878191
36	0x3ca17d44	0.019713052
37	0x3a1aad7b	0.00059004844
38	0xbddfeeae	-0.109341964
39	0x3cafc9e1	0.021458568
40	0xbc970ebf	-0.018439649
41	0xbb997946	-0.0046836464
42	0x3ceef92b	0.029171547
43	0xbd7f38f1	-0.062310163
44	0xb9e2d389	-0.00043263685
45	0xbdafacda	-0.08577891
46	0xbd928674	-0.07154551
47	0xbccd7eed	-0.025084937
48	0xbd8da75c	-0.06916687
49	0x3d1ab406	0.03776934
50	0xbd50c07e	-0.050964825
51	0x3d81a81a	0.06330891
52	0x3ddab103	0.106782936
53	0xbc182ea9	-0.009288468
54	0x3d7a5612	0.06111724
55	0x3ca71120	0.020393908
56	0xbe4628e8	-0.19351542
57	0x3db861ed	0.09003053
58	0xbe32bc81	-0.17454721
59	0xbd0b6742	-0.03403402
60	0xbddf2fce	-0.1089779
61	0x3da835d7	0.08213394
62	0x3e8229c0	0.25422478
63	0x3c0ee73a	0.008722121
64	0xbeaf3d6c	-0.3422655
65	0xbd92973d	-0.07157753
66	0xbcf1b3e2	-0.02950472
67	0x3da7c7c5	0.081924
68	0xbe27e4d0	-0.16395879
69	0xbe106af4	-0.141033
70	0x3c88dae1	0.016705932
71	0x3d791cc4	0.06081845
72	0x3d1a0e4c	0.03761129
73	0xbd1539b4	-0.036431983
74	0xbdc82020	-0.09771752
75	0xb9bcfeee	-0.00036048092
76	0xbee8bd15	-0.45456758
77	0x3dabf183	0.08395674
78	0x3c1449cd	0.009050799
79	0xbd837d03	-0.064203285
80	0x3e8fa898	0.28058314
81	0xbcbc8d16	-0.023016494
82	0xbe4cb8a1	-0.19992305
83	0xbde3ed8d	-0.111292936
84	0xbe2d1c7e	-0.169054
85	0xbd71a825	-0.058998246
86	0xbd031323	-0.032000672
87	0xbd9910ad	-0.07473884
88	0x3cb886cd	0.022525216
89	0x3e32b34b	0.17451207
90	0xbba5de0d	-0.005061871
91	0xbde409f3	-0.1113471
92	0xbcf74f73	-0.030189252
93	0xbe2080cb	-0.1567413
94	0xbe247628	-0.16060698
95	0xbd74c9ca	-0.059762754
96	0x3e0e8731	0.13918759
97	0xbda52b04	-0.08064845
98	0xbe357384	-0.17719847
99	0xbc18203e	-0.009285031
100	0x3d7f519d	0.062333692
101	0x3dd2dc90	0.10295975
102	0x3e364727	0.1780058
103	0x3dd7a090	0.10528672
104	0x3db84336	0.089971945
105	0x3d06590c	0.032799765
106	0xbda67358	-0.08127469
107	0x3c4438e0	0.011976451
108	0x3df7940e	0.12088786
109	0x3d39b702	0.045340545
110	0xbf4ec046	-0.80762136
111	0x3d2dfda6	0.042478226
112	0x3dfd8019	0.12377948
113	0xbd5e3f28	-0.05425945
114	0x3ded8d2b	0.11599191
115	0xbe92c0c2	-0.28662688
116	0xbf085986	-0.532616
117	0xbd8df21d	-0.06930945
118	0xbfe795a7	-1.8092545
119	0xbdae72e6	-0.08518009
120	0xbd67d907	-0.056603458
121	0xbe0b945a	-0.1363081
122	0x3c3e21e5	0.011604761
123	0x3c203869	0.009779074
124	0xbe051bb2	-0.12998846
125	0x3d8c36df	0.06846403
126	0x3da167eb	0.07881149
127	0xbd337a3f	-0.043817755
128	0x3e042775	0.12905677
129	0xbca10dd8	-0.019659922
130	0x3d356be2	0.04429234
131	0x3d2f55c3	0.042806398
132	0x3d5cd023	0.053909432
133	0x3db3abb2	0.08772983
134	0xbf58cf26	-0.84691083
135	0x3e31c5cf	0.17360614
136	0x3c583c60	0.013197988
137	0x3e979187	0.29603216
138	0xbde47171	-0.1115445
139	0x3e050934	0.12991792
140	0xbf3a48a2	-0.7276708
141	0x3e5f9b85	0.2183667
142	0x3cd6aa57	0.026204271
143	0x3f46a19d	0.7759035
144	0xbdc5b323	-0.09653308
145	0xbe2de060	-0.16980124
146	0xbd6660fe	-0.056244843
147	0x3e4f6cd0	0.20256352
148	0xbe1daa5a	-0.15397015
149	0x3d138a2e	0.03602045
150	0xbd479056	-0.048721634
151	0x3ca97bb6	0.020688873
152	0xbe01cbd2	-0.12675408
153	0x3d97fb34	0.0742096
154	0xbbc204d8	-0.0059209876
155	0x3d8e4a16	0.069477245
156	0xbe1a1b9a	-0.15049592
157	0xbd052aa9	-0.032511387
158	0xbd07a940	-0.033120394
159	0x3daecdbc	0.085353345
160	0xbdd6f767	-0.10496407
161	0xbda57f90	-0.08080971
162	0x3b815513	0.003946909
163	0xbde1c185	-0.11023239
164	0xbdf6baff	-0.120473854
165	0xbd4a4d90	-0.049390376
166	0xbe0004fd	-0.12501903
167	0x3da51623	0.08060863
168	0xbdada626	-0.08478956
169	0x3d0217d3	0.031761
170	0xbd0ba0bd	-0.03408884
171	0xbd98af8c	-0.07455358
172	0xbdd3fcfa	-0.10350986
173	0xbcb62a2b	-0.022236904
174	0xbd8d42d7	-0.06897514
175	0xbd55dfa5	-0.052215237
176	0x3cac46a8	0.021029785
177	0xbd8d33f0	-0.06894672
178	0xbd0246bd	-0.031805743
179	0x3de8e479	0.11371703
180	0x3df2c649	0.11854226
181	0xbdee795e	-0.11644243
182	0xbd95c1f2	-0.07312383
183	0xbe30e984	-0.17276579
184	0xbe082b9d	-0.13297887
185	0xbde99648	-0.11405617
186	0x3dbf67e2	0.09345986
187	0x3df2d15a	0.11856337
188	0xbdef4e07	-0.116848044
189	0xbca33f5c	-0.019927673
190	0x3d19f726	0.037589215
191	0xbd85da59	-0.06535787
192	0xbe23c2d8	-0.15992296
193	0xbdb19e45	-0.08672766
194	0xbc9d251e	-0.019182738
195	0x3d1867b6	0.03720828
196	0xbdf5f990	-0.12010491
197	0x3df14468	0.117806256
198	0x3d94a806	0.072586104
199	0xbc92eb18	-0.017934367
200	0xbc5742da	-0.013138497
201	0x3ddcc6cc	0.10780105
202	0x3e006e16	0.12541994
203	0xbcb979e6	-0.022641134
204	0xbd3213c3	-0.043475877
205	0xbd9f1469	-0.07767565
206	0xbda8cf4b	-0.08242663
207	0x3dafaca9	0.08577854
208	0xbbc06f53	-0.005872646
209	0xbda93f9f	-0.08264088
210	0x3c18eadd	0.0093333395
211	0x3d7b354c	0.061330125
212	0x3d4c93c7	0.04994562
213	0xbdb326fd	-0.08747671
214	0x3d91a375	0.07111255
215	0x3d99600c	0.074890226
216	0xbb127359	-0.0022346585
217	0x3c9ba33d	0.018998737
218	0xbd96f1d2	-0.07370342
219	0xbac9d35c	-0.0015398073
220	0xbc6796a3	-0.014135036
221	0xbc9bb7b6	-0.019008499
222	0xbce52391	-0.027971061
223	0xbdf3fb2e	-0.11913143
224	0x3d8fbeba	0.070188
225	0xbd2e0bd0	-0.042491734
226	0xbe47336c	-0.1945321
227	0xbda0591f	-0.078294985
228	0x3d99f446	0.075172946
229	0x3d289500	0.041157722
230	0xbdddf8cb	-0.10838469
231	0xbc471d7a	-0.012153024
232	0xbd1e9d3e	-0.038724177
233	0xbd1e91f3	-0.038713407
234	0xbd929b6c	-0.071585506
235	0x3d9a6091	0.0753795
236	0x3daebb85	0.0853186
237	0xbe178236	-0.14795765
238	0xbdab0fa7	-0.08352595
239	0x3ce95744	0.028483994
240	0x3d60b06f	0.05485576
241	0x3e070e8d	0.13189144
242	0x3d611f18	0.054961294
243	0x3dcc4c76	0.09975521
244	0xbd857f0e	-0.065183744
245	0xbdc71191	-0.097201474
246	0xbd871acd	-0.06596909
247	0xb8149a36	-3.542957e-05
248	0xbdd50e4b	-0.10403117
249	0x3d5ba945	0.053628225
250	0x3cfc6840	0.030811429
251	0xbd7069ee	-0.058694772
252	0x3df2b5ee	0.118511066
253	0xbe06d79a	-0.13168183
254	0xbd8899f7	-0.066699915
255	0xbe1362bc	-0.14393133

layer_3.bias f4 [27]
0	0xbd881cb1	-0.066460975
1	0xbee4a3f8	-0.44656348
2	0xbf9d7fc2	-1.2304614
3	0xbdabc7d2	-0.08387722
4	0xbe2d4064	-0.16919094
5	0xbfa01403	-1.2506107
6	0xbc0ce50f	-0.008599534
7	0xbf5a4f3b	-0.85277146
8	0x3c10bc78	0.008833997
9	0xbe911305	-0.28334823
10	0xbeb36a92	-0.35042244
11	0x3f169e96	0.5883573
12	0xbe763d15	-0.24046738
13	0xbe9ff39e	-0.31240553
14	0xc00bb1ce	-2.1827273
15	0xbd9324fd	-0.07184789
16	0x3fc39b42	1.5281756
17	0xbd16f578	-0.03685519
18	0xbe1a4d8b	-0.15068643
19	0xbc1edfba	-0.009696895
20	0xbf924605	-1.1427618
21	0xbd4e4aa2	-0.050364144
22	0xbe6b38bf	-0.22970866
23	0xbd7c0587	-0.06152871
24	0xbea45d43	-0.32102403
25	0x3e24c284	0.16089827
26	0xbde61216	-0.11233918

layer_middle.weight f4 [27, 27]
0	0xbb2e2d58	-0.002657732
1	0xbe4d15f5	-0.20027907
2	0xbd8f2565	-0.06989554
3	0x3dbb6bed	0.091514446
4	0xbb9ef125	-0.004850524
5	0x3dc145f3	0.0943717
6	0xbdd37b43	-0.10326245
7	0xbe5aa502	-0.21352008
8	0xbe002529	-0.12514175
9	0x3d0ebcab	0.034847897
10	0xbe1ade20	-0.15123796
11	0xbe7a9894	-0.24472266
12	0xbe3c244b	-0.1837322
13	0xbc1f49b3	-0.009722161
14	0xbe9daf89	-0.30797985
15	0x3e03d13a	0.12872782
16	0xbebf0c30	-0.37313986
17	0xbdb82a16	-0.08992402
18	0x3d3d6571	0.04623932
19	0x3d157419	0.036487672
20	0xbc9f8687	-0.019473327
21	0xbdafe763	-0.085890554
22	0x3e12930e	0.1431391
23	0xbe5cbe1d	-0.21556897
24	0xbe221e08	-0.15831769
25	0x3dd681e4	0.104739934
26	0x3dc7cdc5	0.09756044
27	0xbdedbf5f	-0.11608767
28	0xbdb1800e	-0.086670026
29	0xbd94abbf	-0.072593205
30	0x3e3e0e17	0.18560062
31	0xbd604afa	-0.054759003
32	0xbe44798e	-0.19186994
33	0xbe087d20	-0.13328981
34	0xbd100b51	-0.035167042
35	0xbd70d24e	-0.058794312
36	0xbe20ef03	-0.15716176
37	0x3bd85653	0.0066020875
38	0xbc83428d	-0.016022945
39	0x3e09e8f8	0.13467777
40	0x3d390525	0.04517092
41	0xbe7cdfb3	-0.2469471
42	0xbe1c89ae	-0.15286896
43	0xbe07ff39	-0.13280953
44	0x3e2f1fd2	0.17101982
45	0x3d91f0ac	0.07125983
46	0xbdcf2cd4	-0.10115972
47	0xbd91b01d	-0.07113669
48	0x3d7eb634	0.06218548
49	0xbd1f00e7	-0.03881922
50	0x3d0e8db9	0.034803126
51	0xbe4229fd	-0.1896133
52	0xbd9ae3a3	-0.075629495
53	0xbe15c337	-0.1462525
54	0xbe9d4a7e	-0.30720896
55	0x3d961283	0.073277496
56	0xbde21837	-0.11039775
57	0x3dfb50ef	0.12271296
58	0x3c7bd17d	0.01536977
59	0xbe430603	-0.19045262
60	0xbdc4f02e	-0.09616123
61	0xbf23ee72	-0.64035714
62	0xbddd8ca7	-0.10817843
63	0x3d271dfe	0.040800087
64	0xbe1b178c	-0.15145701
65	0xbc9ca397	-0.019120974
66	0xbf3d3ece	-0.7392396
67	0x3da58514	0.08082023
68	0xc08870f7	-4.2637897
69	0xbeb62a20	-0.35579014
70	0xbe33b90c	-0.17551059
71	0x3d2b18df	0.041771766
72	0xbd976e8f	-0.07394134
73	0x3d56ec68	0.05247155
74	0xbf8b27d9	-1.0871536
75	0x3de18cc4	0.11013177
76	0xbda877a3	-0.08225944
77	0x3e1a2dfc	0.15056604
78	0xbe4482db	-0.19190542
79	0x3dce7f23	0.10082843
80	0xbd3599bb	-0.044336062
81	0xbf97b228	-1.1851244
82	0x3efe1fc5	0.49633613
83	0xbdc5664b	-0.096386515
84	0x3d7801ac	0.06054847
85	0xbdabcbab	-0.08388456
86	0xbd97376c	-0.07383618
87	0x3db6b280	0.08920765
88	0xbf257b56	-0.6464132
89	0xbda9e026	-0.08294706
90	0xbe064b4a	-0.13114658
91	0xbe1a48bf	-0.15066813
92	0xbedaa193	-0.42701396
93	0x3d102f94	0.035201624
94	0x3d838926	0.06422643
95	0xbf4769aa	-0.77895606
96	0xbd12ca00	-0.035837173
97	0xbf2bbb78	-0.6708293
98	0xbe0471d2	-0.12934044
99	0xbd962605	-0.073314704
100	0xbb9499e2	-0.004534946
101	0xbf89568e	-1.0729539
102	0xbe5ce96f	-0.21573423
103	0xbd7aac4e	-0.06119948
104	0xbdbd202b	-0.09234651
105	0x3d0d512f	0.03450125
106	0xbeb31ef9	-0.34984568
107	0xbbcf8b28	-0.0063337274
108	0xbdf73dfb	-0.12072369
109	0xbd8e6c74	-0.069542795
110	0xbe2be485	-0.16786392
111	0x3e396cca	0.18107906
112	0xbdb8084a	-0.08985956
113	0xbda5b4ec	-0.08091149
114	0xbd94ca5a	-0.07265158
115	0xbf13b0ec	-0.57691836
116	0xbe14dd9c	-0.14537662
117	0xbd1a38c0	-0.037651777
118	0x3e127aba	0.14304629
119	0xbbafdaab	-0.0053666434
120	0x3ea9d26e	0.33168358
121	0xbdbcfee7	-0.09228306
122	0xbd1625f3	-0.036657285
123	0xbc67255b	-0.014108027
124	0xbeb8c1a7	-0.36085245
125	0x3d76d37a	0.060260274
126	0x3ddb6bb5	0.10713903
127	0xbde80f19	-0.11331005
128	0xbdc01da1	-0.09380651
129	0x3dc9e344	0.098578006
130	0x3d58cdc4	0.05293061
131	0x3e5b52aa	0.21418253
132	0x3c3a3da9	0.01136724
133	0x3e13bef3	0.1442831
134	0xbc7b9cf3	-0.015357244
135	0xc0a96934	-5.294092
136	0x3d273f42	0.04083181
137	0xbeca349f	-0.39493272
138	0xbcfbaf62	-0.030723277
139	0xbc91898c	-0.017765783
140	0x3b8cf82d	0.004302046
141	0x3e3e8780	0.18606377
142	0xbf7ba018	-0.9829116
143	0x3c63e75d	0.013910142
144	0xbc8836d7	-0.016627712
145	0x3d0f7e5d	0.03503262
146	0xbec6ae25	-0.38804737
147	0xbd577fcd	-0.052612115
148	0xbddb22bd	-0.10699985
149	0xbfb50499	-1.4142028
150	0x3e091c26	0.13389644
151	0xbf0bfb99	-0.5468078
152	0x3e28b5d9	0.1647562
153	0xbd7a431f	-0.061099168
154	0xbd0faa70	-0.03507465
155	0xbf7ab50f	-0.97932523
156	0x3d7dbc42	0.061947115
157	0x3d940bed	0.07228837
158	0x3d1e53b1	0.038654033
159	0xbd064b67	-0.032786753
160	0xbe16b1d4	-0.14716274
161	0x3d57dd7a	0.05270145
162	0xbe45ab31	-0.19303586
163	0x3e0fb664	0.1403442
164	0x3db854a7	0.09000521
165	0x3d8671e5	0.065646924
166	0x3db6ea55	0.08931414
167	0xbcb84841	-0.02249539
168	0x3da253da	0.0792615
169	0xbe351e91	-0.17687441
170	0xbe44f2ca	-0.19233242
171	0x3de9f589	0.11423785
172	0xbce5e181	-0.02806163
173	0xbcc13610	-0.02358535
174	0x3e3bf240	0.1835413
175	0xbe2c4579	-0.16823377
176	0xbe997017	-0.2996833
177	0xbca9cc79	-0.020727383
178	0xbdeb0dda	-0.11477251
179	0x3db93134	0.09042588
180	0xbe04cb13	-0.12968092
181	0xbdbc1fbc	-0.0918574
182	0xbeb83406	-0.3597719
183	0xbd5f3539	-0.054494116
184	0xbbfb1efe	-0.0076636067
185	0x3d4695a1	0.04848254
186	0xbe334fba	-0.17510882
187	0x3b5bc6b2	0.003353518
188	0xbdefbfaa	-0.11706479
189	0xbb47bae3	-0.0030476383
190	0x3b4daf02	0.003138483
191	0xbb0dc658	-0.0021633115
192	0x3dfe05f4	0.12403479
193	0x3c06aae9	0.008219459
194	0x3c9fa46c	0.019487582
195	0xbda1873f	-0.07887124
196	0x3ad6daa1	0.0016392061
197	0xbd3a161a	-0.045431234
198	0xba213655	-0.00061497587
199	0x3c896bc9	0.016775029
200	0x3a2ff847	0.00067127164
201	0xbe4a5ad4	-0.1976121
202	0x3d9b7f38	0.075926244
203	0xbde8d11e	-0.11368011
204	0xbc740863	-0.014894578
205	0x3f003d76	0.5009378
206	0x3de72e46	0.11288123
207	0x3d3564ee	0.044285707
208	0x3ddd247b	0.10797974
209	0x3d69ad33	0.05704994
210	0x3d3d6a03	0.04624368
211	0x3d1eaabe	0.03873705
212	0x3ceb6db8	0.028738841
213	0xbd10e1f1	-0.035371725
214	0xbe50f30d	-0.20405217
215	0xbce0e321	-0.027452054
216	0x3ae0df42	0.001715638
217	0x3d7e48b2	0.062081046
218	0xbc99ba08	-0.018765464
219	0x3cfbf3d0	0.030755907
220	0xbc901b6d	-0.017591203
221	0xbbaad7dc	-0.0052137207
222	0x3d1f4b72	0.03889031
223	0x3a5ae04e	0.0008349464
224	0xbba8ccd7	-0.005151372
225	0x3ccfa2c8	0.025346175
226	0xbccc6403	-0.024950033
227	0xb9cf387b	-0.00039524198
228	0x3e0eee09	0.1395799
229	0xbd7da6e0	-0.061926723
230	0x3ed39b53	0.4132944
231	0x3b86effd	0.0041179643
232	0xbfc0f839	-1.5075752
233	0x3d70fa41	0.05883241
234	0xbda765e8	-0.08173734
235	0x3e4ce6c8	0.20009911
236	0x37c4c172	2.34551e-05
237	0x3de0895b	0.109636985
238	0x3d86831c	0.06567976
239	0x3de4b814	0.111679226
240	0xbc862236	-0.016373735
241	0x3d2bbfd5	0.041930992
242	0x3c7c7964	0.015409801
243	0x3a7c3f5f	0.000962248
244	0x3cb73757	0.022365255
245	0xbdc5f80f	-0.09666454
246	0xbdf28bb9	-0.11843056
247	0x3adaa024	0.0016679806
248	0xbe5fde6b	-0.2186219
249	0xbd365cdf	-0.044522163
250	0xc132985e	-11.162199
251	0x3e3b489b	0.18289416
252	0x3d9287e7	0.071548276
253	0xbe28ba19	-0.1647724
254	0x3ec484dc	0.38382614
255	0x3cdf5c8c	0.02726581

layer_middle.bias f4 [27]
0	0xbe8301ae	-0.2558722
1	0xbe9359fb	-0.28779587
2	0xbf06f071	-0.52710634
3	0x3efdc09f	0.4956102
4	0xbefb7384	-0.4911157
5	0x3fa520fc	1.2900691
6	0xbe9eff5a	-0.31054193
7	0xbd0d5586	-0.03450539
8	0x3d16b33c	0.036792025
9	0xbd91021d	-0.07080481
10	0xbecbfc1c	-0.39840782
11	0xbe6ae5f2	-0.2293928
12	0x3ef49851	0.47772458
13	0xbee1c9e0	-0.4409933
14	0xbe8f36fe	-0.27971643
15	0xbda00d63	-0.07815053
16	0xba9f552d	-0.0012156122
17	0xbe409155	-0.1880544
18	0xbcdecc91	-0.027197154
19	0xbb2f0379	-0.002670495
20	0xb834b1bf	-4.3080883e-05
21	0x3dbbc7f6	0.09168999
22	0xbc3509a2	-0.01104966
23	0x3ddbc399	0.10730667
24	0xbe80a10b	-0.25122866
25	0x3e900de1	0.2813559
26	0x3e5245c7	0.2053443
